tmp/ppo/actor_torch_ppo.pt (torch, 277272 bytes, 6 tensors)

actor.0.weight f4 [256, 5]
0	0x3e9a6a24	0.30159104
1	0xbe635ccf	-0.22203372
2	0xbd3ced30	-0.046124637
3	0x3e5da174	0.2164362
4	0xbea8687e	-0.3289222
5	0x3e501c44	0.20323282
6	0xbd478f48	-0.048720628
7	0x3e86794c	0.26264417
8	0xb8d03000	-9.9271536e-05
9	0xbd0d5be8	-0.034511477
10	0xbe4dc0d5	-0.20093091
11	0x3e88e65c	0.2673825
12	0xbe39bf48	-0.18139374
13	0x3e443904	0.19162375
14	0xbd4fd228	-0.05073753
15	0x3d55c348	0.052188188
16	0x3e37c534	0.17946321
17	0xbe9ba799	-0.30401304
18	0xbebc6123	-0.3679286
19	0x3e89f06c	0.2694124
20	0xbbb8d400	-0.0056405067
21	0x3ebebe0e	0.37254375
22	0x3ce061e0	0.02739042
23	0xbd9e6374	-0.07733813
24	0x3d12a4e8	0.035801798
25	0xbd927520	-0.07151246
26	0x3e990c7a	0.2989233
27	0x3ead3e78	0.33836722
28	0x3dab5620	0.083660364
29	0xbd83633c	-0.06415412
30	0x3ebd7e36	0.37010354
31	0x3e022974	0.12711126
32	0xbed18900	-0.40924835
33	0x3e65f0dc	0.22455162
34	0xbec060e1	-0.37573913
35	0xbce38670	-0.027774066
36	0xbea3ae14	-0.3196875
37	0xbd52cdd0	-0.05146581
38	0xbeabc6f9	-0.33550242
39	0xbb847080	-0.0040417314
40	0xbdca0984	-0.09865096
41	0x3edbfb86	0.42965335
42	0xbdfc4928	-0.12318641
43	0x3e73201c	0.23742718
44	0xbee09618	-0.43864512
45	0xbec76c4c	-0.3894981
46	0x3e0a88a4	0.13528687
47	0xbea0dfa6	-0.3142063
48	0xbe95dde2	-0.29270846
49	0xbdeefee0	-0.11669707
50	0xbe9cda83	-0.3063546
51	0x3d46ad18	0.04850492
52	0x3eac3f60	0.336421
53	0xbe70e6cc	-0.23525542
54	0xbdaa2230	-0.08307302
55	0xbee4bcae	-0.446752
56	0xbd6888a8	-0.05677095
57	0xbea6c451	-0.32571653
58	0x3def5728	0.116865456
59	0x3eb4e8d4	0.35333884
60	0xbd9808e4	-0.07423571
61	0x3e5d9ce8	0.21641886
62	0xbe9014ef	-0.2814097
63	0xbebbc4ca	-0.36673576
64	0x3b0a3200	0.0021086931
65	0x3d8b06a0	0.06788373
66	0x3ebc2db2	0.36753613
67	0xbebbced1	-0.36681226
68	0xbe8d6870	-0.27618742
69	0x3ebde16e	0.37086052
70	0x3eb26980	0.34846115
71	0x3e86040c	0.26174963
72	0xbd896fb8	-0.06710762
73	0x3e9f5346	0.3111822
74	0xbe0c123a	-0.13678828
75	0x3e2eac58	0.17057931
76	0x3dc98098	0.098389804
77	0xbe5cba35	-0.21555407
78	0xbebdbeaa	-0.37059528
79	0xbe5030d5	-0.20331128
80	0xbe4be681	-0.19912149
81	0x3e579e8c	0.21056575
82	0x3ebf081c	0.37310874
83	0x3d45d6f0	0.048300683
84	0xbe8e70ea	-0.27820522
85	0x3ebf9da0	0.37424946
86	0xbd98e6bc	-0.07465884
87	0x3cfd6d40	0.030935884
88	0x3ee266c8	0.4421904
89	0x3ec855f2	0.3912807
90	0x3e68eae0	0.22745848
91	0x3edb09be	0.4278087
92	0xbe1617a0	-0.1465745
93	0x3e1ee34c	0.15516394
94	0xbb158700	-0.0022816062
95	0xbea48f5e	-0.3214063
96	0x3eb98ace	0.36238712
97	0xbeabf025	-0.33581653
98	0x3e547088	0.20746052
99	0xbd73b488	-0.05949834
100	0x3d36fbf0	0.04467386
101	0xbdc9df0c	-0.09856996
102	0xbe82d664	-0.25554192
103	0xbeba5b9f	-0.36398026
104	0x3ea67a8a	0.32515365
105	0x3e087668	0.13326418
106	0xbe9bf402	-0.304596
107	0x3ddb5fc0	0.10711622
108	0xbe8620d4	-0.2619692
109	0xbe084e82	-0.13311198
110	0xbd454aa0	-0.04816687
111	0x3cb2f8d0	0.021847159
112	0xbe0e01c4	-0.13867861
113	0x3eb2cdf2	0.3492275
114	0xbed979a4	-0.42475617
115	0x3e15de64	0.14635617
116	0x3e96ab8c	0.29427755
117	0xbeda28e6	-0.42609328
118	0x3e6ec2a0	0.23316431
119	0xbe97c7d0	-0.29644632
120	0x3d294c50	0.041332543
121	0x3e9781e4	0.29591286
122	0xbe53e3e4	-0.20692402
123	0xbe283a7c	-0.1642856
124	0xbe31c272	-0.17359331
125	0x3e7875f0	0.2426374
126	0xbdcce200	-0.100040436
127	0x3e72886c	0.23684853
128	0xbeaf2a16	-0.34211797
129	0x3d267010	0.040634215
130	0xbe7a259e	-0.24428412
131	0x3dd60ff8	0.104522645
132	0x3e88af68	0.26696324
133	0xbbbeadc0	-0.0058190525
134	0x3ebfc44a	0.37454444
135	0xbe94b604	-0.29045117
136	0x3e3dd964	0.18539959
137	0x3e34acb0	0.17644
138	0x3e47d2e0	0.19514036
139	0x3e316d30	0.17326808
140	0xbe96ac99	-0.29428557
141	0xbe83eccd	-0.25766602
142	0xbe8d3034	-0.2757584
143	0xbd6d6090	-0.057953417
144	0xbedb48f1	-0.42829087
145	0x3e6d3e8c	0.23168391
146	0x3e53ea44	0.20694834
147	0x3e8725ac	0.2639593
148	0x3edff9ba	0.43745214
149	0xba917100	-0.0011096299
150	0x3eb58db2	0.35459667
151	0xbe95dcf7	-0.29270145
152	0xbea5fd42	-0.32419783
153	0xbe4e0341	-0.20118429
154	0xbdc90c28	-0.09816772
155	0xbea84641	-0.328661
156	0x3e7e18c0	0.24814129
157	0xbd8ee70c	-0.069776624
158	0x3e401280	0.18757057
159	0xbe66d12c	-0.2254073
160	0x3edbd18c	0.4293331
161	0x3ed7c9ce	0.42146152
162	0xbe681ae1	-0.22666503
163	0x3e0ac3dc	0.13551277
164	0xbeb58376	-0.3545186
165	0xbedea1a8	-0.4348271
166	0xbd976ec4	-0.07394174
167	0x3e089830	0.13339305
168	0x3d2fcf78	0.042922467
169	0x3e3b47fc	0.18289179
170	0x3e46a544	0.19398981
171	0x3e9c550e	0.30533642
172	0x3d9e1850	0.07719481
173	0x3e57ac50	0.21061826
174	0x3ed3ace4	0.41342843
175	0x3dd5f8d0	0.10447848
176	0x3e419e00	0.18907928
177	0x3ebc3f10	0.36766863
178	0xbeb1fafe	-0.34761804
179	0xbe617c0a	-0.22019973
180	0x3edb0a76	0.4278142
181	0xbea3728a	-0.31923324
182	0xbd215918	-0.039391607
183	0x3e947b82	0.2900048
184	0xbe95deb8	-0.29271483
185	0x3dc4d150	0.09610236
186	0xbc2b3440	-0.010449469
187	0x3b196600	0.0023406744
188	0xbe537b5b	-0.20652525
189	0x3e273060	0.16327047
190	0x3e9df5cc	0.3085159
191	0x3ed56ca2	0.41684443
192	0x3ecebfc4	0.4038068
193	0xbd990fd4	-0.07473722
194	0xbec7c6a2	-0.39018732
195	0xbeb6a60a	-0.35673553
196	0x3de0cc98	0.10976523
197	0x3e180fa8	0.14849722
198	0xbe50e736	-0.204007
199	0x3e64e83c	0.22354215
200	0xbeb7a8df	-0.35871026
201	0x3ecc7a8a	0.3993724
202	0xbed378ac	-0.41303003
203	0xbed46d32	-0.4148956
204	0x3e3e0a20	0.1855855
205	0xbe0b116e	-0.13580868
206	0x3eb88a1e	0.36042875
207	0xbe7ffd45	-0.24998958
208	0x3dede698	0.11616248
209	0xbdeb71c0	-0.114963055
210	0x3da7e9e8	0.08198911
211	0x3ea921e2	0.33033663
212	0x3e95803a	0.29199392
213	0xbea4ab8a	-0.32162124
214	0xbe462c5c	-0.1935286
215	0xbea53f70	-0.3227496
216	0x3b395e00	0.0028284788
217	0x3e8bcab4	0.27303088
218	0x3ed99de6	0.4250328
219	0xbe8417b1	-0.25799325
220	0xbea2f19e	-0.31824964
221	0x3d0c9a70	0.03432697
222	0xbc6d0c00	-0.014468193
223	0x3db87668	0.09006959
224	0x3e481130	0.19537807
225	0x3e8bd206	0.27308673
226	0x3d4536f0	0.048148096
227	0x3d9dee90	0.07711518
228	0x3eac777e	0.33684915
229	0x3df974e8	0.12180501
230	0xbdc296c8	-0.095014155
231	0x3edcf8aa	0.43158466
232	0xbe6eec2c	-0.2333228
233	0xbda0e50c	-0.07856187
234	0xbe515658	-0.20443094
235	0x3ed03168	0.40662694
236	0x3e950630	0.29106283
237	0xbebee4e5	-0.37284008
238	0xbe86b41c	-0.26309288
239	0x3ead82e4	0.33888924
240	0x3e95bcf6	0.29245728
241	0xbea3a529	-0.31961945
242	0x3e8abc38	0.27096725
243	0xbe27aab8	-0.16373718
244	0x3ca39df0	0.019972771
245	0xbd8392bc	-0.06424472
246	0x3e4b78c8	0.19870293
247	0xbeb9b2b5	-0.36269155
248	0xbd1256a0	-0.035727143
249	0x3cf8f600	0.03039074
250	0x3e98c9e2	0.29841524
251	0x3e95959e	0.2921571
252	0x3dac41e0	0.08411002
253	0xbe15aa0c	-0.14615649
254	0xbe52308b	-0.2052633
255	0xbea13119	-0.3148277

actor.0.bias f4 [256]
0	0x3e8e4942	0.27790266
1	0xbdd81ed4	-0.10552755
2	0x3e91eaf4	0.28499568
3	0x3ebcdaf6	0.36885804
4	0x3d25f448	0.040516168
5	0xbe926238	-0.2859056
6	0x3e8e589c	0.2780198
7	0xbed31e4b	-0.4123405
8	0x3e97f596	0.29679555
9	0x3e93f740	0.28899574
10	0xbe9ba9aa	-0.3040288
11	0x3e8037d2	0.25042588
12	0x3e367a78	0.17820156
13	0xbed3da5a	-0.41377527
14	0xbe852d2e	-0.26011032
15	0xbe991bd4	-0.29904044
16	0xbe200da4	-0.15630203
17	0x3dff1978	0.1245603
18	0xbec697d4	-0.3878771
19	0x3e7efb54	0.24900562
20	0x3eceb2fe	0.40370935
21	0xbeae423f	-0.34034917
22	0x3ddcf170	0.10788238
23	0x3ed26f2a	0.41100436
24	0x3ec676bc	0.38762462
25	0x3edc23ea	0.4299615
26	0x3e849426	0.25894278
27	0x3eb28fda	0.34875375
28	0x3e130804	0.14358526
29	0xbed3b220	-0.41346836
30	0x3eb6031c	0.35549247
31	0xbe8e7310	-0.2782216
32	0xbed737d0	-0.4203477
33	0xbd11c0b8	-0.03558418
34	0xbdd6a2d0	-0.10480273
35	0xbe42310c	-0.18964022
36	0xbe810343	-0.251978
37	0x3e1cd2a8	0.15314734
38	0x3ed9c0f6	0.4253003
39	0x3e1f2760	0.15542364
40	0x3eab88aa	0.33502704
41	0x3e936278	0.28786063
42	0x3ed76958	0.42072558
43	0xbe2932b4	-0.16523248
44	0xbd8081e0	-0.06274772
45	0x3ca38c00	0.019964218
46	0x3ee1a820	0.44073582
47	0x3dbc6ff8	0.09201044
48	0x3e950d70	0.29111814
49	0x3ed13eaa	0.4086812
50	0xbdd75c7c	-0.10515687
51	0xbeaa01dd	-0.33204547
52	0xbd81f164	-0.0634487
53	0x3ec212e4	0.37905037
54	0x3ddddbe8	0.108329594
55	0x3d832318	0.06403178
56	0xbe314c00	-0.17314148
57	0x3eb845be	0.3599071
58	0x3d94cc58	0.07265538
59	0xbe097222	-0.13422444
60	0xbecda134	-0.4016205
61	0x3eb87ae4	0.36031258
62	0x3d32d168	0.043656737
63	0xbe1500f8	-0.14551151
64	0xbebd87af	-0.3701758
65	0x3ee00970	0.437572
66	0xbec3c7ac	-0.38238275
67	0x3db099b0	0.086230636
68	0x3eb4b0ba	0.35291082
69	0xbe058d78	-0.13042247
70	0xbe8b2c84	-0.271824
71	0x3cc0f820	0.023555815
72	0x3dbe30e0	0.09286666
73	0xbe5a978b	-0.21346872
74	0xbe95e3db	-0.29275402
75	0xbe953da6	-0.29148597
76	0x3eba2a34	0.36360323
77	0xbe90c184	-0.2827264
78	0xbdf78d20	-0.12087464
79	0xbdc61c98	-0.096734226
80	0x3ebd64ce	0.3699097
81	0xbeb61e4e	-0.35569996
82	0xbe86f3ee	-0.2635798
83	0xbd1ac380	-0.0377841
84	0x3cf6f120	0.030144274
85	0x3dc4e978	0.09614843
86	0x3e872548	0.2639563
87	0xbe58847e	-0.21144292
88	0xbebca88c	-0.3684734
89	0x3edcd416	0.4313056
90	0xbeb9ff5b	-0.36327633
91	0x3cd427a0	0.0258978
92	0xbeac037b	-0.33596405
93	0xbde622b0	-0.11237085
94	0x3e470f84	0.19439512
95	0xbd924464	-0.07141951
96	0xbe6f616d	-0.23377009
97	0xbe963379	-0.29336146
98	0x3e609c94	0.2193473
99	0x3d00a0b8	0.031403273
100	0xbe489884	-0.1958943
101	0xbd418770	-0.047248304
102	0x3d9831b0	0.07431352
103	0x3ec8b78a	0.3920253
104	0xbec6af8a	-0.388058
105	0xbdf10f88	-0.117705405
106	0xbc86cce0	-0.016455114
107	0x3eacbf72	0.3373981
108	0x3e03b158	0.1286062
109	0xbebc435a	-0.36770135
110	0x3e6aaee8	0.22918284
111	0xbe8284df	-0.25491998
112	0xbe6bd3bd	-0.2302999
113	0xbee1d78e	-0.44109768
114	0xbe42b332	-0.1901367
115	0x3d549000	0.05189514
116	0xbed5f02a	-0.41784793
117	0x3eba4106	0.36377734
118	0x3e839ef0	0.25707197
119	0xbe0c0134	-0.13672334
120	0x3e80a6c0	0.2512722
121	0x3edc35c2	0.43009764
122	0x3e9b46e4	0.30327523
123	0xbebec8f5	-0.37262693
124	0x3db42d00	0.087976456
125	0xbde534d4	-0.11191717
126	0x3d48e930	0.04905051
127	0x3e3903e0	0.18067884
128	0xbe4a7fcc	-0.19775313
129	0xbe56abb7	-0.20963942
130	0x3c85a650	0.016314656
131	0xbeb6ebc9	-0.35726765
132	0x3e54f408	0.20796216
133	0xbe22d948	-0.15903199
134	0xbe9e05d3	-0.3086382
135	0x3da3aea8	0.079922974
136	0xbe0b2946	-0.13589963
137	0xbe28ba0a	-0.16477218
138	0x3dfa4818	0.12220782
139	0x3e9f7550	0.3114419
140	0xbea64586	-0.32474917
141	0x3b5bcd80	0.0033539236
142	0x3ea2df06	0.31810778
143	0x3d9696e0	0.07352996
144	0xbea368b4	-0.3191582
145	0x3b824bc0	0.0039763153
146	0x3ec423f8	0.38308692
147	0x3ed9b748	0.42522645
148	0x3e603374	0.21894628
149	0x3ea57eb0	0.32323217
150	0xbeda2d53	-0.42612705
151	0xbee43bb2	-0.44576794
152	0x3d7eae70	0.062178075
153	0x3e544b50	0.20731854
154	0x3cc1e6b0	0.02366957
155	0xbec9fb72	-0.3944965
156	0x3de16c78	0.11007017
157	0xbe8d15ba	-0.2755564
158	0x3e05bc48	0.13060105
159	0x3ecfbef8	0.40575385
160	0xbe946657	-0.2898433
161	0x3e969d26	0.2941677
162	0xbebc946f	-0.36831996
163	0xbae3db00	-0.0017383993
164	0x3a4c3200	0.0007789433
165	0x3ecbf200	0.3983307
166	0xbda1ab44	-0.078939945
167	0xbe38e3be	-0.18055627
168	0x3d6b53f0	0.057453096
169	0xbd7f06d0	-0.062262356
170	0x3dbc2ac0	0.091878414
171	0xbe88a25a	-0.26686364
172	0x3df33828	0.11875945
173	0xbe81e928	-0.25373197
174	0x3d065c08	0.03280261
175	0xbe0794bc	-0.13240331
176	0x3e908e6e	0.28233665
177	0xbe98b786	-0.29827517
178	0x3e15160c	0.14559191
179	0xbdef8464	-0.116951734
180	0x3e0020f8	0.12512577
181	0x3ed6423a	0.41847402
182	0x3d95a720	0.07307267
183	0x3ec37862	0.38177782
184	0x3db64b78	0.08901113
185	0x3ecc9818	0.39959788
186	0x3e9982c0	0.29982567
187	0xbe158226	-0.14600429
188	0x3e8327c4	0.25616276
189	0x3ccf42a0	0.025300324
190	0x3ebe5fd4	0.37182486
191	0xbe7afe0b	-0.24510972
192	0x3ed5f496	0.41788167
193	0xbebb5900	-0.3659134
194	0xbd6acf50	-0.057326615
195	0xbd0b2188	-0.033967525
196	0x387bc000	6.0021877e-05
197	0x3ec2f028	0.3807385
198	0x3ecfe9e0	0.4060812
199	0xbe5bf560	-0.21480322
200	0xbed967b8	-0.42461944
201	0xbe2f5836	-0.17123494
202	0xbdd4ea48	-0.10396248
203	0x3d188450	0.037235558
204	0x3ed11dea	0.40843135
205	0xbe021734	-0.12704164
206	0xbe0b53d0	-0.1360619
207	0x3ebafa52	0.36519104
208	0x3d0358d0	0.03206712
209	0x3e7fede4	0.24993092
210	0xbec5ee2a	-0.38658267
211	0xbec5b9c6	-0.38618296
212	0x3e43a0f8	0.19104373
213	0xbd62dff8	-0.055389374
214	0xbe68d1eb	-0.22736327
215	0x3e4e9950	0.20175672
216	0xbecd0796	-0.4004485
217	0xbecbc44e	-0.39798206
218	0xbe8621ef	-0.26197764
219	0x3b759900	0.0037475228
220	0xbeb86ff0	-0.36022902
221	0x3ea8b5c6	0.32951182
222	0x3dd210b8	0.10257095
223	0x3e1bdf5c	0.15221924
224	0x3e5a137c	0.21296495
225	0x3e4e7d5c	0.20165008
226	0xbe7574fd	-0.23970409
227	0x3e72ffb8	0.23730361
228	0xbd1a2798	-0.037635416
229	0xbc2999c0	-0.010351598
230	0x3cfc75c0	0.030817866
231	0xbe0ccfe0	-0.13751173
232	0x3eb426b4	0.35185778
233	0xbd23a468	-0.039951712
234	0xbed0214b	-0.406504
235	0x3e9046f4	0.28179133
236	0x3ea0862e	0.3135237
237	0xbc909630	-0.01764974
238	0xbec53f29	-0.3852475
239	0x3e91ff64	0.2851516
240	0xbe3af314	-0.1825679
241	0xbd9af2c8	-0.07565838
242	0x3e96af16	0.29430455
243	0xbe17ed8e	-0.14836714
244	0xbea61105	-0.3243486
245	0xbeae27a5	-0.3401462
246	0x3ed13ecc	0.40868223
247	0x3edf9044	0.43664753
248	0x3ec6f9d2	0.38862473
249	0x3e9e83aa	0.30959827
250	0xbee143a2	-0.43996912
251	0x3d606b80	0.05479002
252	0x3be1bf40	0.006889254
253	0x3e59320c	0.21210498
254	0x3e28376c	0.16427392
255	0xbeb1d14a	-0.34729987

actor.2.weight f4 [256, 256]
0	0x3c8b5320	0.01700741
1	0xbd2ff1c2	-0.042955168
2	0xbb622ae0	-0.0034510419
3	0xbcf609d4	-0.030033983
4	0x3c9724f0	0.01845023
5	0xbc676978	-0.014124267
6	0x3d4b6618	0.04965791
7	0xbd6b9204	-0.0575123
8	0x3c282d08	0.010264643
9	0xbce20818	-0.02759175
10	0xbc0ec8b0	-0.00871484
11	0x3d1f9540	0.038960695
12	0xbd65ff0a	-0.056151427
13	0x3b3716e0	0.0027937219
14	0x3c36dde0	0.011161298
15	0x3c179580	0.009251952
16	0x3d4ccf66	0.050002478
17	0xbbf2ec70	-0.0074134395
18	0xbca355d4	-0.019938387
19	0x3d475d02	0.048672684
20	0xbd0116d6	-0.03151592
21	0x3d423d80	0.047421932
22	0xb84f1800	-4.9374998e-05
23	0xbc9fdfec	-0.019515954
24	0xbd735958	-0.059411377
25	0x3d7bc2e2	0.06146515
26	0xbd217252	-0.039415665
27	0xbd5381dc	-0.051637515
28	0x3d42323a	0.04741118
29	0x3cd30454	0.0257589
30	0x3befa140	0.0073129237
31	0x3d2e3402	0.042530067
32	0x3c451890	0.012029782
33	0xbc98f7a0	-0.018672764
34	0x3d128f0c	0.03578095
35	0xbd0cd664	-0.034384146
36	0x3d3a3a00	0.04546547
37	0x3d10ff5a	0.035399772
38	0x3c20eef0	0.009822592
39	0x3c21da50	0.00987871
40	0xb96f1200	-0.00022799522
41	0xbd6c8e26	-0.05775275
42	0x3c92a6c4	0.017901786
43	0x3cf1fb9c	0.029538922
44	0xbce3010c	-0.02771046
45	0xbc5795b0	-0.013158247
46	0x3cba6fdc	0.022758417
47	0x3b8abdd0	0.004234053
48	0xbd33ebe0	-0.04392612
49	0x3cbfece8	0.023428395
50	0xbcc00294	-0.02343873
51	0x3c443e40	0.011977732
52	0x3d26c364	0.040713683
53	0xbbff6c70	-0.007794909
54	0xbb80e820	-0.0039339215
55	0x3c97fcd0	0.018553168
56	0x3d6ed8fa	0.058312394
57	0x3c15ad50	0.009135559
58	0x3d31e0fc	0.043427452
59	0xbadf19c0	-0.0017021224
60	0x3aeaedc0	0.0017923638
61	0x3d7acd48	0.061230928
62	0xbc5c5978	-0.013449065
63	0xbd7bd230	-0.061479747
64	0xbc272950	-0.010202721
65	0xbcdb6fcc	-0.026786707
66	0x3d3f0adc	0.046641216
67	0x3d1911b0	0.037370384
68	0x3d210972	0.03931565
69	0x3d250b3c	0.040293917
70	0x3c0c8490	0.008576527
71	0xbc8bd840	-0.01707089
72	0xbcc8b220	-0.024499
73	0x3d0fc374	0.035098508
74	0x3ca2bb64	0.019864745
75	0x3bdf4370	0.006813459
76	0x3d074370	0.033023298
77	0x3d233652	0.039846726
78	0xbd6b7fe4	-0.057495013
79	0x3d4ae9a4	0.049539223
80	0x3ca70798	0.020389363
81	0xbd694368	-0.05694905
82	0x3c241278	0.010014169
83	0xbc024098	-0.007949971
84	0x3d41a84c	0.04727964
85	0xbd027cdc	-0.031857356
86	0xbc48f7b0	-0.012266085
87	0x3cb019d8	0.021496698
88	0xbcb58a0c	-0.022160552
89	0x3d7a8aec	0.061167642
90	0x3cfa9928	0.030590609
91	0xbd1a756c	-0.03770964
92	0x3d010eaa	0.031508125
93	0x3d31e504	0.043431297
94	0x3b9e5350	0.004831709
95	0x3bbb16e0	0.005709514
96	0xbc13d200	-0.009022236
97	0x3d2382e2	0.03991974
98	0x3c7707d0	0.015077546
99	0x3d2dbd4e	0.042416863
100	0x3d43871e	0.04773628
101	0xbd5e4c46	-0.05427196
102	0xbca683d0	-0.020326525
103	0xbd226c7a	-0.039654233
104	0xbd3c97aa	-0.046043076
105	0x3d6f5df8	0.058439225
106	0xbced652c	-0.028978907
107	0x3b30ec00	0.0026996136
108	0x3c9ce258	0.019150898
109	0xbd630cd0	-0.05543214
110	0x3d37ef04	0.044905677
111	0xbd19a220	-0.03750813
112	0xbd0d553a	-0.034505107
113	0x3c37fd58	0.011229835
114	0xbd67a8dc	-0.05655752
115	0xbd023754	-0.031791046
116	0xbc5fb770	-0.013654575
117	0xbd6ffed4	-0.058592632
118	0xb9da9300	-0.00041689724
119	0x3d0d56e8	0.03450671
120	0x3cda9084	0.026680239
121	0x3d42b3f4	0.047534898
122	0xbce10518	-0.02746825
123	0xbc99d7ac	-0.018779598
124	0xbbeb9b10	-0.0071901157
125	0xbb4de140	-0.0031414777
126	0xbd5435d2	-0.05180914
127	0xbd471550	-0.04860431
128	0xbc34b7e8	-0.011030175
129	0x3d4d688a	0.050148524
130	0x3b9112e0	0.004427299
131	0x3d536862	0.05161322
132	0x3c423a80	0.011854768
133	0x3cd6ecc0	0.026235938
134	0x3c809d38	0.015699968
135	0x3cee258c	0.029070638
136	0xba804dc0	-0.0009788796
137	0xbd028aba	-0.03187058
138	0x3cde2e3c	0.027121656
139	0x3d757c8a	0.059933223
140	0xbd1fa72e	-0.038977794
141	0xbcff20cc	-0.031143568
142	0xbcded2d0	-0.027200133
143	0x3d31f29a	0.043444254
144	0x3d44513c	0.047929034
145	0xbcaf80a8	-0.021423653
146	0xbcdbc954	-0.0268294
147	0x3d10d292	0.035357065
148	0x3d181a5e	0.03713452
149	0x3d4a7e70	0.049436986
150	0x3d7e61ba	0.062104918
151	0x3c4baf28	0.012431897
152	0xbc5ce328	-0.013481893
153	0xbd3cc7e8	-0.046089083
154	0x3ca1b070	0.019737452
155	0xbc82aa38	-0.015950307
156	0x3d383990	0.04497677
157	0xbd305aee	-0.043055467
158	0xbbbab1f0	-0.0056974813
159	0xbd172320	-0.036898732
160	0x3d1145b4	0.035466865
161	0xbd473fe2	-0.048644908
162	0xbd4a7be8	-0.049434572
163	0x3bd654b0	0.0065408573
164	0x3d19d060	0.037552238
165	0xbd2f4f04	-0.042799965
166	0xbb827980	-0.003981769
167	0x3c98a600	0.018633842
168	0x3c828b88	0.015935674
169	0x3cb19d3c	0.02168142
170	0xbd09a620	-0.033605695
171	0xbc7ce118	-0.015434526
172	0xbcf5c204	-0.02999974
173	0x3b720800	0.0036931038
174	0x3cb37ca0	0.021910012
175	0xbd1c8922	-0.038216718
176	0xbd38a3fe	-0.04507827
177	0xbc347de8	-0.0110163465
178	0xbd054460	-0.03253591
179	0xbc1d86f0	-0.009614691
180	0x3d7fbfa8	0.062438637
181	0xbc9b729c	-0.018975548
182	0xbc70d9e0	-0.014700383
183	0x3cdcf374	0.026971556
184	0xbcb14950	-0.021641403
185	0xbd6dbf62	-0.058043845
186	0x3ace2840	0.0015728548
187	0x3d7ace34	0.061231807
188	0xbcdf4738	-0.02725564
189	0xbcb0ba58	-0.02157323
190	0xbd13558c	-0.035970256
191	0x3d6f1e5a	0.058378555
192	0x3cbee2e0	0.023301542
193	0x3d7e1160	0.06202829
194	0xbd4f2e64	-0.05058135
195	0x3d61e9c4	0.055154577
196	0xbd6263cc	-0.055270955
197	0x3d3d9e6a	0.046293654
198	0x3d7831f8	0.06059453
199	0x3c55c648	0.013047762
200	0x3d13ef8c	0.03611712
201	0x3d17306a	0.036911406
202	0xbcc53fec	-0.024078332
203	0xbd0959d0	-0.033532917
204	0x3ccb2b9c	0.024801068
205	0x3d522c16	0.051311575
206	0x3c56e998	0.0131172165
207	0x3cc520b4	0.024063446
208	0xbd4ca270	-0.0499596
209	0xbc39a498	-0.011330746
210	0x3c640000	0.013916016
211	0x3c2b82c0	0.010468185
212	0xbd7eaea6	-0.062178276
213	0x3c732d50	0.014842346
214	0xbcc9e3d0	-0.024644762
215	0x3d2e94dc	0.042622432
216	0xbc2ba4e8	-0.010476328
217	0x3c37d2b8	0.011219673
218	0x3cfb9264	0.030709453
219	0xbd635304	-0.05549909
220	0x3d75f062	0.0600437
221	0x3c87f184	0.016594656
222	0x3cd9d458	0.026590511
223	0x3cd325b0	0.025774807
224	0x3d3e8986	0.04651787
225	0xbd18cbac	-0.03730361
226	0x3c174900	0.009233713
227	0x3d5927ba	0.0530164
228	0x3d758de4	0.05994977
229	0x3cb7220c	0.022355102
230	0xbd1ad1be	-0.037797682
231	0x3d0b859a	0.03406296
232	0xbc603c78	-0.013686292
233	0xbd0e4a20	-0.03473866
234	0x3d100d8e	0.035169177
235	0xbd0bde74	-0.034147695
236	0x3ba80a20	0.00512816
237	0x3cd46d64	0.025931068
238	0xbbb4c130	-0.005516194
239	0x3b2ff3e0	0.0026848242
240	0xbc803070	-0.015648097
241	0xbd10c330	-0.035342395
242	0x3d2eddc0	0.042691946
243	0xbcc11478	-0.02356933
244	0x3c0fe3e0	0.008782357
245	0xbc27a260	-0.010231584
246	0xbd660da4	-0.056165352
247	0xbcfd9f90	-0.030959874
248	0xbba55e30	-0.0050466284
249	0x3cf18d20	0.029486239
250	0xbd65f2ea	-0.056139864
251	0xbca17074	-0.019706942
252	0x3d2c3408	0.04204181
253	0xbb97f020	-0.0046367794
254	0xbd14f1b0	-0.036363304
255	0xbd03bcf4	-0.03216262

actor.2.bias f4 [256]
0	0x3d1a0b7e	0.037608616
1	0xbd7eed02	-0.062237747
2	0x3d1cbef6	0.038268052
3	0xbc0ad6f8	-0.008474104
4	0xbcacb9b4	-0.021084644
5	0xbd643bec	-0.05572121
6	0xbc1a1bd8	-0.0094060525
7	0xbd662f78	-0.056197613
8	0x3bf08dd0	0.007341124
9	0xbcd4200c	-0.025894187
10	0xbc9b4954	-0.018955864
11	0x3b3952e0	0.0028278157
12	0x3d0fbb98	0.035091013
13	0x3d32772a	0.043570675
14	0x3d378082	0.04480029
15	0xbd086768	-0.03330174
16	0xbd765a4c	-0.060144708
17	0x3c8f5574	0.017496802
18	0xbc79eea8	-0.015254654
19	0xbd7019ee	-0.05861848
20	0x3d048ef2	0.032362886
21	0xbccf3004	-0.02529145
22	0x3d7919b2	0.06081552
23	0x3d365148	0.04451111
24	0x3d31041c	0.04321681
25	0x3d1e9864	0.03871955
26	0xbd4a2212	-0.0493489
27	0x3d49f454	0.049305275
28	0x3d52caca	0.051462926
29	0xbc59a950	-0.013284996
30	0xbd6fe3d6	-0.05856689
31	0x3bf48040	0.0074615777
32	0x3abb5cc0	0.001429461
33	0x3d5e166e	0.05422061
34	0xbd39db06	-0.045374893
35	0x3d679160	0.056535125
36	0xbd4bf500	-0.049794197
37	0x3d75d0aa	0.06001345
38	0xbcea1600	-0.028574944
39	0xbd1066c0	-0.03525424
40	0xbcfc97d8	-0.030834123
41	0x3d78f30e	0.06077867
42	0xbc0d7038	-0.008632712
43	0xbcbe8028	-0.023254469
44	0xbc3595c0	-0.011083066
45	0x3af3ccc0	0.0018600449
46	0xbd32463e	-0.04352402
47	0x3c85b650	0.016322285
48	0xbbfda340	-0.007740408
49	0x3b1e7380	0.002417773
50	0xbc9d4560	-0.01919812
51	0xbd253a00	-0.040338516
52	0x3cb7426c	0.02237054
53	0x3d0279f4	0.031854585
54	0xbce31fa8	-0.027725056
55	0x3c8ccf98	0.017188832
56	0xbd140d2c	-0.036145374
57	0xbcee90c4	-0.029121764
58	0x3d3efcc2	0.046627767
59	0x3d7a7670	0.061148107
60	0x3d18741a	0.037220098
61	0xbce528bc	-0.027973525
62	0x3d26bd1e	0.0407077
63	0xbc2cf748	-0.010557003
64	0xbc0527c0	-0.008127153
65	0x3cebd37c	0.028787367
66	0xbd2f05f2	-0.04273028
67	0xb9099400	-0.00013120472
68	0x3d115b7e	0.035487644
69	0xbcf50a84	-0.02991224
70	0xbd0f0262	-0.03491438
71	0x3bb88ed0	0.005632259
72	0x3c84fc10	0.016233474
73	0xbd6dac54	-0.058025673
74	0x3bc11c60	0.005893275
75	0x3c11c568	0.008897163
76	0xbd799ae6	-0.06093874
77	0x3c8ad840	0.01694882
78	0xbca94dd4	-0.020666994
79	0x3cfc6268	0.030808643
80	0x3ce60a90	0.028081208
81	0x3cd67c94	0.02618245
82	0x3d05e692	0.032690592
83	0xbd792cba	-0.06083367
84	0xbd3a21f0	-0.04544252
85	0x3ccb56b0	0.02482161
86	0x3bb811e0	0.0056173652
87	0x3d0af09a	0.03392086
88	0x3cc40bb0	0.023931354
89	0xbcabeb98	-0.020986363
90	0xbd10802e	-0.03527849
91	0x3d6845a6	0.056707047
92	0xbd3b1d3c	-0.045682177
93	0x3d562f48	0.052291185
94	0x3d0b2432	0.033970065
95	0xbc20d330	-0.009815976
96	0xbd414526	-0.047185086
97	0x3d2b93a6	0.041888855
98	0xbd7a64be	-0.06113123
99	0x3c7809d8	0.015139066
100	0x3d312fe6	0.04325857
101	0x3d7a1e66	0.061064146
102	0xbd177426	-0.036976002
103	0xbd684408	-0.056705505
104	0x3d604566	0.054753684
105	0xbc3ca728	-0.0115144625
106	0x3c90e708	0.01768829
107	0xbce97778	-0.02849935
108	0xbd317076	-0.04332014
109	0xbcf871b0	-0.030327648
110	0xbd35bfd0	-0.04437238
111	0x3a382300	0.00070242584
112	0x3cbf4108	0.023346439
113	0xbd0874dc	-0.03331457
114	0x3b0901a0	0.002090551
115	0x3d6fd196	0.058549486
116	0x3cd3e2e8	0.025865033
117	0x3c8b60bc	0.0170139
118	0x3d1941e0	0.03741634
119	0x3c04c2d0	0.008103088
120	0x3cbd6524	0.023119517
121	0xbd72e1e0	-0.059297442
122	0x3c71c6e8	0.014756896
123	0xbd725864	-0.059166327
124	0x3d3bcb9a	0.045848466
125	0xbd78ee04	-0.060773864
126	0xbbac28b0	-0.0052538738
127	0xbd1e6ab4	-0.03867598
128	0xbd3b2a58	-0.04569468
129	0xbcfcee00	-0.030875206
130	0x3d709f12	0.05874545
131	0xbd635808	-0.055503875
132	0x3d223808	0.039604217
133	0xbd18e346	-0.03732612
134	0x3d5ea85e	0.054359786
135	0xbbd17de0	-0.0063931793
136	0xbba58810	-0.0050516203
137	0x3aa67800	0.0012700558
138	0x3c3ca310	0.0115134865
139	0xbd4660bc	-0.048432097
140	0x3d0e4562	0.034734137
141	0xbca38d80	-0.019964933
142	0x3d6c1870	0.057640493
143	0x3cc3986c	0.023876391
144	0xbd57fa16	-0.052728735
145	0xbd133ff8	-0.035949677
146	0x3cf69870	0.030101985
147	0xbd626718	-0.0552741
148	0x3c884b30	0.016637415
149	0xbbf924e0	-0.007603273
150	0xbd2e4ece	-0.042555623
151	0xbc986bac	-0.01860603
152	0x3be3eb00	0.0069555044
153	0xbbe4fe40	-0.006988317
154	0x3d6ec506	0.058293365
155	0xbccee79c	-0.025256924
156	0xbd17ae1a	-0.03703127
157	0x3bd45420	0.006479755
158	0xbd14f0d6	-0.03636249
159	0x3cc5ad88	0.024130598
160	0x3cb9521c	0.02262216
161	0x3a819c40	0.0009888485
162	0x3d46976c	0.04848425
163	0xbba67ca0	-0.0050807744
164	0x3cbb3d80	0.022856474
165	0xbd63459a	-0.0554863
166	0xbb912440	-0.00442937
167	0xbbe9c780	-0.007134378
168	0x3a9bf100	0.0011897385
169	0x3d3d4370	0.04620689
170	0xbd41c670	-0.047308385
171	0x3aa05cc0	0.0012234673
172	0xbc80f748	-0.015742913
173	0x3d78912e	0.06068533
174	0xbd1420e0	-0.036164165
175	0x3d1cfd9a	0.03832779
176	0x3d0a6232	0.033785053
177	0xbd72d9dc	-0.0592898
178	0xbc970e84	-0.018439539
179	0xbc127e50	-0.008941248
180	0xbd72b510	-0.059254706
181	0xbcbe598c	-0.023236059
182	0xbc917e78	-0.0177605
183	0xbb1e2520	-0.0024131015
184	0xbd21446e	-0.0393719
185	0xbc3d21f8	-0.011543743
186	0x3d1c4eb8	0.03816101
187	0xbca06190	-0.019577771
188	0x3d17dd9c	0.037076578
189	0x3d46effc	0.04856871
190	0x3c934950	0.017979294
191	0xbd2b4002	-0.04180909
192	0x3d7c9cd4	0.061673
193	0xbd31cf6a	-0.043410696
194	0xbb821c70	-0.003970675
195	0xbc96bbdc	-0.018400125
196	0xbbcd94e0	-0.006273851
197	0x3ca82f2c	0.020530306
198	0x3bbc6ad0	0.0057500377
199	0x3c55c080	0.013046384
200	0xba9f5140	-0.0012154952
201	0xbd681cd6	-0.056668125
202	0xbc7ee8e0	-0.015558451
203	0xbcb80aa8	-0.022466019
204	0xbcf3ad50	-0.029745728
205	0x3c9c41a0	0.019074261
206	0x3c520270	0.012817964
207	0xbd57901e	-0.052627675
208	0xbcb22434	-0.021745779
209	0xbd77ff8c	-0.060546443
210	0x3c928f60	0.017890632
211	0xbcf1505c	-0.029457264
212	0x3c9903d0	0.018678576
213	0x3d7e204a	0.062042512
214	0xbd732738	-0.059363574
215	0x3ccecc04	0.025243767
216	0xbb396280	-0.002828747
217	0xbd72f9c0	-0.05932021
218	0xbd342cee	-0.04398816
219	0x3c3d0638	0.011537127
220	0xbcea6320	-0.02861172
221	0xbc1e14a0	-0.009648472
222	0xbc69dc58	-0.014273725
223	0xbd3ca47c	-0.046055302
224	0xbd43bf18	-0.047789663
225	0xbd662016	-0.056182943
226	0x3d0e2584	0.034703746
227	0xbc6597f8	-0.014013283
228	0xbd0044e2	-0.03131569
229	0xbc6125a8	-0.013741888
230	0xbcedda58	-0.029034778
231	0x3d44378c	0.047904536
232	0x3c4efe20	0.01263383
233	0x3b16e1a0	0.0023022667
234	0x3d5708d2	0.052498646
235	0x3d4ed63c	0.05049728
236	0xbd3cd874	-0.046104863
237	0x3ceb5bc8	0.028730288
238	0xbc6e80c8	-0.014557071
239	0xbc04c110	-0.00810267
240	0x3d5ef6a6	0.05443444
241	0x3d7a5630	0.06111735
242	0xbd6f9f9c	-0.058501825
243	0xbd632d48	-0.055463105
244	0x3bede310	0.007259734
245	0x3d043478	0.0322766
246	0xbb957a10	-0.00456167
247	0x3cb505e8	0.022097543
248	0xbcd5dcb4	-0.026106216
249	0xbd5c4c74	-0.05378385
250	0x3d041398	0.03224525
251	0x3d4d0130	0.05004996
252	0x3d0180a0	0.031616807
253	0xbd45b578	-0.048268765
254	0x3cf95cb4	0.030439712
255	0x3d4b7972	0.049676366

actor.4.weight f4 [5, 256]
0	0x3d652458	0.055942863
1	0xbd78784a	-0.06066159
2	0x3c2eadf0	0.010661587
3	0xbd72078c	-0.05908923
4	0x3ce20f84	0.027595289
5	0x3d638586	0.05554726
6	0xbc458568	-0.012055732
7	0x3d1b5600	0.037923813
8	0xbb6a40c0	-0.003574416
9	0x3d4520b0	0.048126876
10	0xbcdc2be0	-0.02687639
11	0xbd197f5c	-0.037474975
12	0x3d6c8676	0.05774542
13	0x3c0fd2e8	0.008778311
14	0xb8256800	-3.9435923e-05
15	0x3c4ec2a8	0.012619652
16	0x3d71ab22	0.059001096
17	0x3c9f4c48	0.019445553
18	0xbccf9c1c	-0.025342993
19	0xbc3ceff0	-0.011531815
20	0xbcf88b60	-0.030339897
21	0xbd75926e	-0.0599541
22	0xbcfe7638	-0.03106223
23	0x3d6bbe20	0.057554364
24	0x3d2bf1fe	0.04197883
25	0x3c3fb608	0.0117011145
26	0xbce4ae90	-0.02791527
27	0xbd60ccf4	-0.05488296
28	0xbd2a8c3a	-0.041637637
29	0x3d68bd30	0.05682105
30	0x3b9c4d40	0.004769951
31	0xbccb2288	-0.02479674
32	0x3d6f5a7a	0.058435895
33	0xbbc9e2b0	-0.0061610565
34	0xbd573bf0	-0.052547395
35	0xbd437658	-0.047720283
36	0x3d1d27a2	0.038367875
37	0xbc87d050	-0.016578823
38	0x3c39e138	0.0113452
39	0xbd42cc1e	-0.047557943
40	0xbc8e0810	-0.017337829
41	0x3b235dc0	0.0024927706
42	0xbd3e7242	-0.046495683
43	0xbce54128	-0.02798517
44	0xbc79d338	-0.015248112
45	0xbd06b9ee	-0.03289216
46	0x3d2acd60	0.041699767
47	0x3d2e3c34	0.042537883
48	0xbc85567c	-0.01627659
49	0x3d6d29b8	0.057901114
50	0x3d28ebe0	0.041240573
51	0x3d5ee3be	0.05441641
52	0x3d2e10e6	0.042496584
53	0xbcb835a4	-0.022486515
54	0xbd4ecade	-0.050486438
55	0xbd404272	-0.046938367
56	0xbd34fff4	-0.04418941
57	0x3c8ee52c	0.017443262
58	0x3d4bc6fc	0.049750313
59	0xbd1490aa	-0.036270775
60	0xbce41df0	-0.027846307
61	0x3d5c8050	0.053833306
62	0xbcceda38	-0.02525054
63	0x3d6e80f4	0.058228448
64	0x3b55ce60	0.003262423
65	0x3d3a03dc	0.045413837
66	0xbd39f8ce	-0.045403294
67	0xbcaee2d4	-0.021348394
68	0x3d68652c	0.05673711
69	0xbd44a3e4	-0.04800786
70	0x3d491522	0.04909242
71	0xbd160dd2	-0.036634274
72	0xbd5dfb06	-0.054194473
73	0x3d394706	0.04523375
74	0xbbb94570	-0.0056540295
75	0x3d4b8dcc	0.049695775
76	0xbd750bae	-0.05982559
77	0xbcb5329c	-0.022118859
78	0x3d5466b4	0.051855758
79	0x3d1a14cc	0.03761749
80	0xbd3da36e	-0.046298437
81	0xbd7865ea	-0.060644068
82	0x3cded890	0.027202874
83	0x3d531640	0.05153489
84	0x3d0fdf40	0.035125017
85	0x3caae384	0.020860441
86	0x3d7cb708	0.06169799
87	0xbc030c30	-0.007998511
88	0xbb306d00	-0.0026920438
89	0xbd1c86aa	-0.038214363
90	0x3d39d72c	0.04537122
91	0xbd27e782	-0.040992267
92	0xbcfa9cc0	-0.030592322
93	0xbc5bc838	-0.013414435
94	0x3845e000	4.7177076e-05
95	0xbd220be2	-0.039562114
96	0x3c8eaf34	0.017417528
97	0x3b67cae0	0.0035368726
98	0x3d5faadc	0.054606304
99	0x3c5fb588	0.01365412
100	0x3ba323d0	0.0049786344
101	0x3d499d30	0.04922217
102	0x3c31b538	0.010846429
103	0x3c92c994	0.017918386
104	0x3cd694ec	0.026194058
105	0xbc7cbf70	-0.015426502
106	0x3d241b8e	0.04006534
107	0xbd7cbf04	-0.061705604
108	0x3d75c67e	0.06000375
109	0xbc0dcf28	-0.008655347
110	0xbd6f2aba	-0.058390357
111	0xbbd25120	-0.0064183623
112	0x3cea7644	0.028620847
113	0x3d2f6a36	0.0428259
114	0x3d56313c	0.052293047
115	0x3d1a8ae8	0.037730128
116	0x3b74aa00	0.0037332773
117	0xbd524da4	-0.051343575
118	0xbb78ac60	-0.003794454
119	0xbd71257c	-0.05887364
120	0xbd05d492	-0.032673426
121	0xbc5c7d60	-0.013457626
122	0xbbd66250	-0.0065424815
123	0xbcf5078c	-0.029910825
124	0x3d1f2fba	0.038863875
125	0xbd027e0a	-0.03185848
126	0x3cb89f7c	0.022536986
127	0xbb28ee80	-0.0025776923
128	0x3d4f7662	0.050650008
129	0x3b96b2c0	0.0045989454
130	0x3d6ca5a6	0.057775162
131	0xbc701b40	-0.014654934
132	0xbd221386	-0.0395694
133	0x3c1d7508	0.009610422
134	0x3cccc78c	0.024997495
135	0xbcfbf0d8	-0.030754492
136	0x3d426540	0.04745984
137	0xba2dd400	-0.0006631017
138	0x3d6d013c	0.057862505
139	0x3c2e3830	0.010633513
140	0x3d55aabc	0.052164778
141	0xbd12a098	-0.035797685
142	0xbd3d0be4	-0.046153918
143	0xbc7e16b0	-0.015508339
144	0xbcd5b940	-0.02608931
145	0xbd1b434e	-0.037905984
146	0xbc3f6ab8	-0.011683159
147	0xbce50edc	-0.027961187
148	0xbd62b28c	-0.055346057
149	0x3ba27470	0.004957728
150	0x3c040fb8	0.008060388
151	0x3d6c19ea	0.0576419
152	0x3d259284	0.04042293
153	0xbc179f08	-0.009254225
154	0xbd4bdbc8	-0.049770147
155	0xbd6405de	-0.055669658
156	0x3b7109c0	0.0036779493
157	0xbd55077a	-0.052009083
158	0xbcd486fc	-0.025943272
159	0x3d5bbf30	0.053649127
160	0xbc4a36e0	-0.012342185
161	0x3c0a68b8	0.008447818
162	0xbd4f61cc	-0.050630376
163	0x3bad6150	0.0052911416
164	0x3cc9dd2c	0.024641596
165	0x3d5a7670	0.053335607
166	0xbd7d5bc4	-0.061855093
167	0xbd066194	-0.0328079
168	0x3d609ab8	0.05483505
169	0xbcc69218	-0.024239585
170	0xbc92c7bc	-0.017917506
171	0xbd100b84	-0.035167232
172	0xbd759798	-0.059959024
173	0xbcc81440	-0.024423718
174	0xbc341348	-0.010990925
175	0x3c86ef04	0.016471393
176	0xbd310b12	-0.043223448
177	0x3c02b6c8	0.007978149
178	0x3d382ede	0.04496657
179	0xbd640d3e	-0.05567669
180	0x3cbd8b68	0.023137763
181	0xbd1ae3fe	-0.037815087
182	0xbbfc52c0	-0.0077002943
183	0x3d713a6a	0.0588936
184	0x3bb99ed0	0.005664684
185	0xbc2fcb80	-0.0107296705
186	0x3d06c00e	0.032898
187	0xbc8a99f8	-0.016919121
188	0xbd55d2f2	-0.052203126
189	0x3cc5e824	0.024158545
190	0x3c25b7d0	0.010114625
191	0xbd501dda	-0.05080972
192	0x3a5f1b00	0.0008510798
193	0x3c016c30	0.007899329
194	0xbcab1ddc	-0.020888261
195	0x3d42537c	0.0474429
196	0x3cf7bf44	0.03024257
197	0xbcc28d38	-0.023748979
198	0xbad64380	-0.0016347021
199	0x3cbc7fa8	0.02301009
200	0xbb6580c0	-0.0035019368
201	0x3b58e340	0.0033094436
202	0x3c040980	0.008058906
203	0x3c1569f0	0.009119496
204	0x3c885634	0.016642667
205	0xbd7a6dd6	-0.061139904
206	0xbd78833c	-0.06067203
207	0x3b5060a0	0.0031795874
208	0xbc881d6c	-0.016615592
209	0xbca2dd50	-0.01988092
210	0x3d23639e	0.039889924
211	0xbd00d86c	-0.031456396
212	0xbd6fec88	-0.058575183
213	0xbd126b20	-0.035746694
214	0x3cbfdfe8	0.023422197
215	0x3ccf11f0	0.025277108
216	0xbb8356a0	-0.0040081292
217	0x3cf38a08	0.029728904
218	0xbc0c9740	-0.008580983
219	0x3d19626a	0.03744737
220	0x3cf5f510	0.030024081
221	0x3d131024	0.035904065
222	0x3c9774a8	0.018488243
223	0x3d562330	0.05227965
224	0xbd2740b0	-0.040833175
225	0xbd4a3b20	-0.049372792
226	0x3cbefc3c	0.023313634
227	0x3d27ddfe	0.040983193
228	0x3d6569e2	0.05600918
229	0xbd34b1f0	-0.044115007
230	0xbd1e81ea	-0.038698114
231	0xbd17bbba	-0.037044264
232	0x3d2805b4	0.041021064
233	0x3d697c3a	0.057003237
234	0x3cbdded4	0.023177542
235	0xbcbc5a98	-0.022992417
236	0xbd0c311e	-0.03422653
237	0x3d03ce72	0.032179303
238	0xbd6db538	-0.05803415
239	0x3d287f1c	0.041136846
240	0x3c910f94	0.017707624
241	0xbd5e7c86	-0.054317974
242	0xbd68e9c2	-0.056863554
243	0x3c8489d0	0.016178995
244	0x3d343bba	0.044002272
245	0x3be0a9b0	0.006856166
246	0x3bc87d30	0.006118439
247	0xbd77ab84	-0.060466304
248	0x3d488886	0.048958324
249	0x3cd944cc	0.026522063
250	0x3d515cca	0.05111388
251	0x3bc05d70	0.0058705136
252	0x3bc22410	0.005924709
253	0xbd076266	-0.033052824
254	0xbd571770	-0.052512586
255	0x3d28f88a	0.04125265

actor.4.bias f4 [5]
0	0xbbeea050	-0.0072822943
1	0x3cd5c2e0	0.0260939
2	0xb8ad0400	-8.250028e-05
3	0xbcb96e08	-0.022635475
4	0x3c427e08	0.0118708685
