tmp/ppo/critic_torch_ppo.pt (torch, 273186 bytes, 5 tensors)

critic.0.weight f4 [256, 5]
-0.37301135 0.26213166 -0.30816835 -0.08811592 0.22670391 -0.20209432 -0.26836738 0.067332804
-0.13224514 0.27459544 0.09443749 -0.22128165 -0.46683708 0.007162269 -0.06038459 -0.38310274
0.06957556 0.17256649 0.18829378 -0.01549416 -0.41727442 -0.3402824 0.30024347 -0.1799808
0.32161242 -0.17977203 0.09330433 -0.35315025 0.004260215 0.4581021 -0.35318395 0.4148294
0.16144586 -0.26897168 0.10292363 -0.15447275 -0.32868502 -0.013811191 -0.04744486 -0.125708
0.15732634 -0.14892729 -0.16578364 -0.26845205 0.029469837 0.3337203 -0.22668467 0.35114598
-0.31966344 -0.036294565 -0.20244375 -0.07097207 -0.16686472 0.24153641 -0.16405344 0.25262523
0.007309918 -0.3049837 -0.28112426 0.32635596 -0.40206626 -0.32299846 -0.12941837 -0.35111287
-0.12597784 -0.17650884 0.34378833 -0.09790653 0.12525757 0.17336403 -0.103374384 0.40048966
0.2474749 -0.1675164 0.19314554 -0.39296442 0.53931147 -0.14231747 -0.17100844 0.1890614
-0.23915881 0.081263304 0.052138925 -0.16960543 -0.16258682 0.11832011 -0.27053705 -0.18821062
-0.30399936 -0.20009254 0.23095967 -0.34115073 -0.20038457 -0.37972233 -0.2897404 0.41138434
0.022926837 -0.320893 -0.4177057 -0.34575891 0.15212372 -0.19087917 -0.45886275 0.2322748
-0.39593375 0.16307594 -0.11532933 0.26434886 -0.2601784 0.070157684 0.25896782 0.25493073
-0.32571444 0.15167043 0.055552557 0.27654204 -0.4229676 0.046013832 0.3187623 0.12573493
0.2779149 0.32629958 0.34174275 0.25957778 0.11547263 0.07818832 -0.16917433 0.19738178
-0.17349625 -0.40485215 -0.21125746 -0.3101925 0.329726 -0.11413286 -0.09629403 0.157118
-0.041040864 -0.080238156 -0.24651787 0.14700678 -0.18821147 -0.31471273 0.15210687 -0.22631492
0.24038082 -0.26578644 -0.17353977 0.070095114 -0.082462914 0.08102394 -0.12479424 -0.22520661
0.110169895 -0.19628692 0.39023453 -0.349238 0.29341146 -0.46271494 0.27082938 0.05392364
-0.36505738 0.2982247 -0.122594096 -0.09698696 -0.10074734 -0.15758291 0.03744343 -0.24034628
-0.16047081 -0.08961195 -0.31568694 -0.1546371 0.06489886 0.15293093 0.30258843 0.027358398
-0.02772189 -0.32748914 -0.08520259 -0.12363448 -0.104091145 -0.0756043 0.2076145 -0.14667563
-0.3547356 0.20437971 -0.05710032 0.0607312 -0.07213932 0.4089649 0.16842525 0.04726911
-0.42800665 0.2792809 -0.40633246 0.30196518 -0.36607277 -0.14300849 -0.39106825 0.0960593
0.23745978 0.11047738 -0.22145653 0.27106068 0.1569582 0.3515128 -0.23112138 -0.41295123
0.377926 -0.3472443 -0.22438316 0.43396837 -0.29623982 -0.056964703 -0.26084346 0.026826536
-0.23936835 0.020142833 -0.106397204 -0.21075806 0.24147998 -0.27338868 0.24479184 -0.116845034
-0.37765387 -0.4482923 0.3534432 0.07408406 0.36150268 -0.058623195 -0.285487 0.28191063
-0.20353031 0.14142789 0.121780306 -0.27117646 0.25956252 -0.4802671 -0.39065492 0.019086389
-0.527683 0.2570362 -0.41165218 0.16188836 -0.1930973 0.19661562 0.32182172 -0.038684215
0.46244356 -0.14351752 0.13348329 0.1970553 0.29906708 0.14369874 -0.36556137 -0.3635476
00000000: 58fb bebe 1f36 863e 3ec8 9dbe 1f76 b4bd
00000010: 1225 683e d0f1 4ebe 7367 89be c8e5 893d
00000020: 456b 07be c697 8c3e 7168 c13d a897 62be
00000030: 4505 efbe 78b1 ea3b d555 77bd 0b26 c4be
00000040: a27d 8e3d 45b5 303e 16d0 403e 38db 7dbc
00000050: fea4 d5be 7f39 aebe 83b9 993e e34c 38be
00000060: 62aa a43e 2916 38be 5716 bf3d 1cd0 b4be
00000070: 4699 8b3b 5c8c ea3e 87d4 b4be 8564 d43e
00000080: 1052 253e a8b6 89be a0c9 d23d 1b2e 1ebe
00000090: 6749 a8be 5548 62bc 8b55 42bd 99b9 00be
000000a0: 281a 213e 6580 18be 30c3 29be 8c72 89be
000000b0: ba6a f13c 63dd aa3e 0720 68be 68c9 b33e
000000c0: edaa a3be 9ca9 14bd 6a4d 4fbe ce59 91bd
000000d0: 96de 2abe 5255 773e a0fd 27be 1858 813e
000000e0: 0988 ef3b d326 9cbe 85ef 8fbe 2118 a73e
000000f0: a1db cdbe 0e60 a5be 4086 04be 11c5 b3be
00000100: 5600 01be bcbe 34be 0605 b03e 3883 c8bd
00000110: 8543 003e 5786 313e f3b5 d3bd fb0c cd3e
00000120: 0f6a 7d3e 6b89 2bbe f2c7 453e a232 c9be
00000130: 5110 0a3f acbb 11be d61c 2fbe 5099 413e
00000140: 0ce6 74be 606d a63d a08f 553d 0cad 2dbe
00000150: 297d 26be d051 f23d d583 8abe 49ba 40be
00000160: cea5 9bbe 0fe5 4cbe b180 6c3e 4fab aebe
00000170: 9d31 4dbe f76a c2be db58 94be f8a0 d23e
00000180: 10d1 bb3c 164c a4be 86dd d5be 5007 b1be
00000190: 52c6 1b3e d475 43be 0ff0 eabe 72d9 6d3e
000001a0: d4b7 cabe 61fd 263e c931 ecbd bc58 873e
000001b0: 1a36 85be d5ae 8f3d 6e97 843e 4886 823e
000001c0: 0bc4 a6be 7e4f 1b3e 148b 633d eb96 8d3e
000001d0: 368f d8be 0079 3c3d d034 a33e a8c0 003e
000001e0: dd4a 8e3e bd10 a73e e8f8 ae3e 61e7 843e
000001f0: ea7c ec3d 3321 a03d 093c 2dbe 731e 4a3e
00000200: 00a9 31be c848 cfbe e053 58be 8dd1 9ebe
00000210: d9d1 a83e 7dbe e9bd ce35 c5bd 8ae3 203e
00000220: 771a 28bd e753 a4bd 2e6f 7cbe f288 163e
00000230: 82ba 40be 0722 a1be e7c1 1b3e 19bf 67be
00000240: 6426 763e 2915 88be 69b4 31be 078e 8f3d
00000250: 51e2 a8bd e1ef a53d 1f94 ffbd 909c 66be
00000260: c1a0 e13d 70ff 48be d2cc c73e 53cf b2be
00000270: 073a 963e f9e8 ecbe 26aa 8a3e 09df 5c3d
00000280: cde8 babe e8b0 983e 9d12 fbbd 19a1 c6bd
00000290: 9f54 cebd 6a5d 21be 485e 193d 561d 76be
000002a0: 7652 24be 7886 b7bd b8a1 a1be 3059 1ebe
000002b0: b2e9 843d ed99 1c3e dfec 9a3e b81e e03c
000002c0: 0419 e3bc a8ac a7be b27e aebd 1334 fdbd
000002d0: bd2d d5bd 6dd6 9abd e598 543e 2332 16be
000002e0: e89f b5be ea48 513e 06e2 69bd 47c1 783d
000002f0: c8bd 93bd d963 d13e ab77 2c3e 419d 413d
00000300: b023 dbbe e8fd 8e3e cf0a d0be 2e9b 9a3e
00000310: e46d bbbe d170 12be 193a c8be bdba c43d
00000320: a828 733e f741 e23d 80c5 62be 77c8 8a3e
00000330: a6b9 203e 7cf9 b33e 15ab 6cbe 586e d3be
00000340: 847f c13e 01ca b1be b3c4 65be 1a31 de3e
00000350: bfac 97be d253 69bd 468d 85be 53c3 db3c
00000360: fa1c 75be 9502 a53c c7e6 d9bd f6d0 57be
00000370: 8746 773e 9af9 8bbe b6aa 7a3e 734c efbd
00000380: d95b c1be 9186 e5be 82f6 b43e 62b9 973d
00000390: e116 b93e e01e 70bd 5a2b 92be 9756 903e
000003a0: 406a 50be 79d2 103e f467 f93d a4d7 8abe
000003b0: 61e5 843e 92e5 f5be ec03 c8be 0f5b 9c3c
000003c0: 3c16 07bf 409a 833e 13c4 d2be 10c6 253e
000003d0: 4cbb 45be 9b55 493e d1c5 a43e 5773 1ebd
000003e0: 67c5 ec3e 42f6 12be d8af 083e ddc8 493e
000003f0: 521f 993e c325 133e dc2a bbbe e922 babe

critic.0.bias f4 [256]
-0.28041968 0.041743796 -0.29339233 0.29490596 -0.1055926 0.106055416 0.21452467 0.43715867
0.06235286 0.22585525 -0.41108787 -0.4348958 -0.34561768 0.152676 0.2291329 0.38425142
-0.4885039 -0.4117236 0.23503213 -0.073889375 0.07578131 0.24611098 -0.6128344 -0.2914442
-0.15555052 0.25352636 -0.22586106 -0.06135176 0.3363331 0.089478016 -0.28238267 -0.16208865
0.12079825 -0.17035753 0.3682638 0.049077693 -0.038646586 -0.32107592 -0.40040073 -0.24327564
-0.49845156 -0.34298524 0.40562057 -0.4152911 0.2578236 -0.41934827 0.1585162 -0.2722574
0.06263269 0.097599365 0.39385328 0.021726003 0.3631518 -0.3129397 0.1098649 -0.49120882
0.34081087 0.3983883 -0.06594369 -0.25709164 -0.09498129 0.21480352 -0.20863467 -0.42669576
-0.46978834 0.20013958 0.03497368 -0.3432951 0.22030798 -0.049652755 0.15474148 -0.337796
-0.017475208 -0.45273623 -0.40997732 0.17060754 -0.047456324 -0.040643755 -0.3188339 -0.045393318
0.052946832 -0.122251 0.23128517 -0.28553697 0.24142526 -0.024441408 -0.4164542 0.28019902
0.2172159 0.2741341 0.23440611 0.22614887 0.36877468 0.22067936 -0.21869253 0.030697316
0.24757987 0.17669716 -0.43160906 0.42113033 0.32205755 -0.20031323 0.31327167 -0.23369643
0.12494576 -0.20978083 0.02375955 -0.24530803 0.124272436 -0.45004365 -0.103438765 0.16707669
0.07359287 -0.30375832 -0.32870862 -0.14246525 -0.06357264 -0.21831775 -0.40757066 -0.07976311
-0.4001659 -0.14467052 -0.07682955 0.092441544 -0.11098245 -0.054205585 0.1061767 0.05483687
0.23203093 -0.41522744 -0.3572478 0.2503482 0.3885426 0.35270724 -0.1956071 -0.5903897
0.13165756 0.13996486 -0.27379033 -0.38685232 0.29372975 0.05993696 -0.10311001 0.31788138
-0.43959108 0.054680176 0.112297565 -0.30438918 0.14268488 -0.02533308 0.35116315 -0.44534123
-0.09547214 0.17101476 0.108544365 -0.0148035465 -0.2516936 0.1443507 0.29656076 -0.10739925
0.31660154 -0.011040233 0.38923118 0.28805423 -0.19071278 0.1949076 -0.12233412 -0.13206966
-0.44233137 -0.17942281 0.028603803 -0.17864864 -0.52705586 -0.07338699 -0.24728079 0.009597382
-0.36363208 -0.19059907 -0.030081734 -0.15530922 -0.2576517 -0.53139037 -0.15981501 0.080435425
0.3394055 -0.25406924 -0.031885177 0.25275302 -0.041062858 0.08376626 0.35718536 0.046993434
-0.05625711 -0.16644208 -0.26099086 -0.26836053 0.36963964 0.12666075 -0.14479917 0.26893073
0.35176444 0.035522178 -0.2809547 -0.11869845 0.3654009 0.15914723 -0.31245822 -0.5137447
0.078975454 0.080020435 0.2585843 -0.36856988 -0.25745645 -0.23810661 -0.05836993 -0.19435824
0.013694962 0.2737167 -0.20689736 -0.31082436 0.072850846 0.290895 0.24329625 -0.30182922
-0.2918611 -0.4377663 0.14128974 -0.31022543 -0.24291931 -0.0005420183 0.23968159 -0.3640318
-0.035057068 0.087761745 0.28971347 -0.016653057 0.36259294 -0.04781908 0.27376842 0.33988443
-0.24434198 0.2385385 -0.004088123 -0.0149545735 -0.4476936 -0.27176225 0.062405437 0.00100191
-0.18927507 -0.08020541 0.14450902 0.4064734 0.14234279 0.39140758 -0.09924381 0.06741918
00000000: 2b93 8fbe 8bfb 2a3d 8537 96be eafd 963e
00000010: ef40 d8bd 9533 d93d 5bac 5b3e 43d3 df3e
00000020: b665 7f3d 9946 673e 1c7a d2be aaaa debe
00000030: cdf4 b0be 1957 1c3e d1a1 6a3e 9abc c43e
00000040: 2f1d fabe 70cd d2be 43ac 703e 5053 97bd
00000050: 3b33 9b3d 8404 7c3e b7e2 1cbf 2d38 95be
00000060: a348 1fbe 35ce 813e 1f48 67be fc4b 7bbd
00000070: da33 ac3e 4040 b73d 7694 90be 91fa 25be
00000080: 1365 f73d 3472 2ebe 138d bc3e b105 493d
00000090: e24b 1ebd 1064 a4be 5301 cdbe 401d 79be
000000a0: 0b35 ffbe c39b afbe 80ad cf3e 09a1 d4be
000000b0: 7401 843e d1b4 d6be 1252 223e 5265 8bbe
000000c0: 9145 803d 2de2 c73d 23a7 c93e bbfa b13c
000000d0: 08ef b93e a239 a0be d900 e13d b97f fbbe
000000e0: c37e ae3e 8df9 cb3e 7c0d 87bd 84a1 83be
000000f0: 8d85 c2bd 74f5 5b3e 54a4 55be de77 dabe
00000100: 1988 f0be 64f1 4c3e 9040 0f3d 60c4 afbe
00000110: 6a98 613e b060 4bbd 8d74 1e3e 99f3 acbe
00000120: 2b28 8fbc 0bcd e7be 8ce8 d1be beb3 2e3e
00000130: 9061 42bd 117a 26bd 323e a3be 58ee 39bd
00000140: c7de 583d bb5e fabd 05d6 6c3e e731 92be
00000150: 2f38 773e 5939 c8bc 7c39 d5be 3f76 8f3e
00000160: d86d 5e3e 4e5b 8c3e 2808 703e 9293 673e
00000170: 09d0 bc3e c5f9 613e eff0 5fbe f078 fb3c
00000180: 9485 7d3e 1af0 343e ddfb dcbe 659e d73e
00000190: bae4 a43e e91e 4dbe 2565 a03e 1e4e 6fbe
000001a0: 90e3 ff3d c9d0 56be 63a3 c23c 0732 7bbe
000001b0: 8c82 fe3d 1f6c e6be b4d7 d3bd 2716 2b3e
000001c0: dcb7 963d 3686 9bbe 7f4c a8be 69e2 11be
000001d0: 5f32 82bd b08e 5fbe 1aad d0be d75a a3bd
000001e0: 8be2 ccbe 8224 14be d058 9dbd fe51 bd3d
000001f0: c44a e3bd ad06 5ebd 2b73 d93d a09c 603d
00000200: 8499 6d3e b198 d4be 2fe9 b6be a42d 803e
00000210: 0eef c63e 0b96 b43e 3a4d 48be c823 17bf
00000220: 3dd1 063e f352 0f3e 3f2e 8cbe 8211 c6be
00000230: bf63 963e 7580 753d 572b d3bd 59c1 a23e
00000240: 1512 e1be 52f8 5f3d 44fc e53d e6d8 9bbe
00000250: fc1b 123e 5287 cfbc a8cb b33e c403 e4be
00000260: e686 c3bd 7e1e 2f3e 824c de3d 938a 72bc
00000270: fcdd 80be abd0 133e d0d6 973e 23f4 dbbd
00000280: 9919 a23e 18e2 34bc 4f49 c73e d87b 933e
00000290: 364a 43be dc95 473e 508a fabd 453d 07be
000002a0: 4279 e2be 9dba 37be 8652 ea3c abef 36be
000002b0: 22ed 06bf eb4b 96bd 2d37 7dbe 563e 1d3c
000002c0: fc2d babe 672c 43be f86d f6bc 6109 1fbe
000002d0: ecea 83be 3309 08bf 8ca6 23be 54bb a43d
000002e0: 8fc6 ad3e 5d15 82be 089a 02bd d868 813e
000002f0: 8731 28bd a58d ab3d 00e1 b63e 307c 403d
00000300: db6d 66bd cb6f 2abe 98a0 85be 8d66 89be
00000310: 6841 bd3e 5bb3 013e 3c46 14be 4ab1 893e
00000320: 781a b43e b47f 113d 4bd9 8fbe 2c18 f3bd
00000330: d415 bb3e 7ef7 223e 86fa 9fbe c684 03bf
00000340: e2bd a13d c1e1 a33d 2965 843e 31b5 bcbe
00000350: 55d1 83be 38d2 73be 4f15 6fbd d905 47be
00000360: d560 603c 9824 8c3e e7dc 53be 5f24 9fbe
00000370: d332 953d 30f0 943e a722 793e 5c89 9abe
00000380: d16e 95be e822 e0be 42ae 103e ded5 9ebe
00000390: d7bf 78be 3b16 0eba 176f 753e 6062 babe
000003a0: 0098 0fbd 6ebc b33d 5355 943e fe6b 88bc
000003b0: c8a5 b93e f1dd 43bd 602b 8c3e 5505 ae3e
000003c0: c934 7abe 7043 743e a9f5 85bb 0704 75bc
000003d0: 1838 e5be 6c24 8bbe d89c 7f3d 8552 833a
000003e0: 53d1 41be bc42 a4bd 2cfa 133e 481d d03e
000003f0: 4fc2 113e 9366 c83e 5740 cbbd 1113 8a3d

critic.2.weight f4 [256, 256]
0.02568572 -0.04977964 0.005950995 -0.013199454 -0.050742507 0.02206552 0.0007975708 -0.010025399
-0.0049689463 -0.06973023 -0.036184058 0.038089864 -0.0617361 0.028773881 -0.05497128 -0.0020497963
0.032995068 -0.045637228 0.0069458485 0.03613259 0.034526266 0.02882427 -0.011645772 0.03614679
0.038584977 -0.049939096 -0.010257366 -0.050679 -0.046360902 -0.042026643 0.037071448 0.035856165
0.048441485 0.05191493 0.03587173 -0.021094106 -0.024461184 0.03882174 -0.022519141 -0.020036971
-0.0031580776 0.0232625 -0.014780708 -0.04408334 -0.029621145 0.04833018 0.0398257 0.0006038323
0.037981167 -0.011785135 -0.0047804387 -0.07517552 -0.005955812 -0.07458602 -0.031957433 -0.020386398
-0.042673096 -0.03818299 -0.055520624 0.017379694 -0.023833856 0.028080061 -0.03352068 0.041704476
-0.061284617 0.02459427 -0.035044216 -0.05092717 -0.054417565 -0.06660872 -0.07842684 -0.0075362176
0.036571093 0.015202562 -0.052364424 0.041608647 -0.05138602 0.060339287 0.052632563 -0.030547887
-0.047317863 -0.065792754 0.025570834 -0.04688435 -0.03698411 0.02501316 -0.061485015 0.043845274
-0.051441386 -0.013882092 -0.023946434 0.049890548 -0.04062916 -0.031558894 0.006539444 -0.005324155
0.0211629 0.021824047 -0.050865747 0.03725467 -0.010004273 4.991144e-05 0.020968234 0.04225073
0.039316535 0.0053824703 0.028661683 -0.0062791915 0.025731906 -0.0019025281 -0.005817473 0.011924385
0.017951801 -0.013623633 -0.0136301 0.043662086 -0.005727317 -0.037390877 -0.0087801665 -0.03311882
-0.0028580502 -0.05808699 -0.038456716 0.044564404 0.03358642 -0.04384066 0.058004923 0.0223023
0.021437049 0.009495474 -0.05330645 -0.012317341 -0.029379433 -0.03588423 0.027018934 0.039094567
0.037838742 -0.043172292 0.03453415 0.0030281171 -0.014719203 -0.061801113 0.02203978 0.031098297
-0.01955244 0.024406627 0.002713279 -0.050967135 0.054213464 0.044146404 -0.062181022 0.043238427
-0.035945326 -0.026759766 -0.0020773262 -0.016494442 -0.041954182 -0.039730564 -0.050051123 -0.03394145
0.021903757 0.04187902 -0.02098814 0.029978901 -0.029576736 -0.041977152 -0.03756032 -0.06327007
0.053123526 -0.009643629 0.028631758 -0.02425114 -0.03345728 -0.01612541 0.043839216 -0.008914463
-0.04620853 0.025011525 -0.025545187 -0.019163534 -0.01641319 0.00423795 -0.0195211 -0.06394479
-0.0114186425 -0.017268017 -0.05441714 0.02566443 -0.023571858 -0.038440965 -0.034204334 0.05165784
-0.0138074905 0.020813406 -0.00672416 0.029930778 0.011143562 -0.021779906 0.03742472 -0.024441794
0.033922553 0.009052128 -0.057323776 -0.013648376 -0.018641207 0.020811453 -0.035590157 0.0215035
0.028687166 -0.05389379 -0.055220746 0.003211543 0.045690313 0.03397099 0.001540838 -0.056413196
0.019884937 -0.06143705 -0.039958034 -0.032819442 -0.012333704 -0.01777259 -0.045757774 -0.037021413
-0.06876469 0.03948634 -0.026295373 -0.03949315 0.03217268 -0.032735687 -0.05400847 -0.071878314
0.007846028 -0.025771063 0.030845515 -0.013573632 -0.04426045 -0.05297688 -0.055072337 0.045062482
0.017075166 0.05124794 0.033070326 -0.059762113 -0.055843934 0.021192484 -0.032033682 -0.06823779
0.010394029 -0.027969599 -0.06126636 -0.057874933 0.0069709984 -0.0048074084 0.011786349 0.010173958
00000000: dc6a d23c bce5 4bbd 9000 c33b 8642 58bc
00000010: 60d7 4fbd c0c2 b43c 1214 513a 9241 24bc
00000020: 8bd2 a2bb b9ce 8ebd bc35 14bd 1e04 1c3d
00000030: fede 7cbd 34b7 eb3c 9129 61bd e055 06bb
00000040: d625 073d 1aee 3abd 009a e33b c4ff 133d
00000050: 6a6b 0d3d e020 ec3c e8cd 3ebc a80e 143d
00000060: 480b 1e3d f08c 4cbd 830e 28bc c894 4fbd
00000070: eee4 3dbd 2124 2cbd 3bd8 173d eadd 123d
00000080: 946a 463d c0a4 543d 3cee 123d 8ccd acbc
00000090: d262 c8bc 8b03 1f3d 107a b8bc 9324 a4bc
000000a0: c0f7 4ebb 0091 be3c c82a 72bc bb90 34bd
000000b0: 0ba8 f2bc def5 453d 4620 233d 804a 1e3a
000000c0: 2492 1b3d 7016 41bc 3aa5 9cbb 9ff5 99bd
000000d0: f928 c3bb 8ec0 98bd cce5 02bd 6001 a7bc
000000e0: fcc9 2ebd c465 1cbd 9869 63bd dc5f 8e3c
000000f0: 383f c3bc 2808 e63c fb4c 09bd 50d2 2a3d
00000100: 9405 7bbd ec79 c93c 868a 0fbd 0299 50bd
00000110: f4e4 5ebd 276a 88bd 409e a0bd 60f2 f6bb
00000120: 92cb 153d 2b14 793c 147c 56bd d46d 2a3d
00000130: 267a 52bd 5426 773d 3e95 573d 903f fabc
00000140: 60d0 41bd 5abe 86bd ed79 d13c ce09 40bd
00000150: a67c 17bd 66e8 cc3c b6d7 7bbd 1a97 333d
00000160: 34b4 52bd b771 63bc 502b c4bc 085a 4c3d
00000170: c36a 26bd e643 01bd d548 d63b 4076 aebb
00000180: d15d ad3c 58c8 b23c 9a58 50bd 5a98 183d
00000190: f6e8 23bc 0058 5138 93c5 ab3c 1a0f 2d3d
000001a0: 600a 213d 6f5f b03b e8cb ea3c adc1 cdbb
000001b0: b8cb d23c 405e f9ba 80a0 bebb 7f5e 433c
000001c0: a80f 933c a935 5fbc c850 5fbc 04d7 323d
000001d0: 38ac bbbb 2d27 19bd b0da 0fbc 9aa7 07bd
000001e0: 204e 3bbb a0ec 6dbd ca84 1dbd 2a89 363d
000001f0: ea91 093d 4492 33bd 9296 6d3d 50b3 b63c
00000200: c09c af3c e892 1b3c dd57 5abd acce 49bc
00000210: 23ad f0bc 58fb 12bd d056 dd3c a021 203d
00000220: ccfc 1a3d 6ed5 30bd ae73 0d3d 6073 463b
00000230: d028 71bc 2a23 7dbd c58c b43c dbc1 fe3c
00000240: 702c a0bc 68f0 c73c 45d1 313b eac2 50bd
00000250: f00e 5e3d dcd2 343d 87b1 7ebd c71a 313d
00000260: 683b 13bd 4c37 dbbc c023 08bb 5a1f 87bc
00000270: 26d8 2bbd 84bc 22bd 6802 4dbd 3106 0bbd
00000280: 826f b33c 5689 2b3d 52ef abbc 5096 f53c
00000290: e94a f2bc 3cf0 2bbd dad8 19bd bd93 81bd
000002a0: 0e98 593d 5000 1ebc 268d ea3c 54aa c6bc
000002b0: 800a 09bd 7019 84bc c090 333d f80d 12bc
000002c0: 2845 3dbd f8e4 cc3c 2444 d1bc d8fc 9cbc
000002d0: f474 86bc 80de 8a3b b7ea 9fbc 7cf5 82bd
000002e0: 4215 3bbc a875 8dbc 82e4 5ebd 363e d23c
000002f0: c519 c1bc 4674 1dbd d819 0cbd 2c97 533d
00000300: d038 62bc e080 aa3c 5856 dcbb 6431 f53c
00000310: 7d93 363c c66b b2bc aa4a 193d 283a c8bc
00000320: 60f2 0a3d 604f 143c 56cc 6abd 709d 5fbc
00000330: 72b5 98bc c87c aa3c fcc6 11bd 1c28 b03c
00000340: 5901 eb3c bcbf 5cbd 262f 62bd c078 523b
00000350: c425 3b3d 2a25 0b3d f2f5 c93a 8611 67bd
00000360: bce5 a23c 6ba5 7bbd 09ab 23bd ae6d 06bd
00000370: 4e13 4abc d397 91bc 816c 3bbd c4a3 17bd
00000380: 80d4 8cbd 6ebc 213d 6569 d7bc 92c3 21bd
00000390: 80c7 033d db15 06bd fc37 5dbd f034 93bd
000003a0: a08c 003c d61d d3bc bcaf fc3c f063 5ebc
000003b0: 724a 35bd 49fe 58bd 8893 61bd 7093 383d
000003c0: 38e1 8b3c 5ce9 513d c074 073d 1ec9 74bd
000003d0: 9cbc 64bd dc9b ad3c c035 03bd 41c0 8bbd
000003e0: b84b 2a3c 8020 e5bc 6ff2 7abd 440e 6dbd
000003f0: f96c e43b 7787 9dbb 881b 413c acb0 263c

critic.2.bias f4 [256]
-0.011877736 -0.09249515 -0.01063113 -0.01606601 -0.10140434 0.034551688 0.008790115 -0.06100001
-0.030101338 0.011554719 0.028280037 -0.1403441 -0.1366127 -0.021067897 -0.03355311 -0.12691775
0.019505903 -0.07415392 0.0035107895 -0.03033752 -0.03188247 0.0013563316 -0.055115126 -0.012630364
0.033423804 -0.044970218 -0.09211257 -0.030386519 -0.0608163 0.039453067 0.021657046 -0.024553899
-0.031154916 -0.008540599 0.026365139 -0.036317397 -0.02540232 -0.032985833 -0.020837836 0.021885302
-0.0781395 0.010567908 0.034472845 0.044188667 -0.00011738101 0.052855615 -0.020561364 -0.010239278
0.051373146 -0.07645728 0.026294285 -0.06528763 -0.009185629 0.0079867095 -0.029017221 -0.09450416
-0.038369164 0.050444126 -0.07477011 -0.036894985 -0.036937587 -0.06595186 0.16665782 0.0021430608
-0.02479757 0.03730874 0.03292488 -0.02891295 -0.028135935 -0.08778316 -0.07652446 0.02785522
-0.07745009 0.013196806 0.020848643 -0.059956387 -0.1254855 -0.04325167 -0.025637483 0.03087069
-0.023631241 0.020215387 -0.04488653 0.01754962 0.022414604 -0.021006534 -0.044930674 -0.06335908
-0.02420378 -0.05867563 -0.03191797 -0.086780824 -0.052738734 -0.021535201 -0.029605512 -0.03486417
-0.038462285 -0.009731969 -0.1272981 -0.029763313 -0.056592103 -0.010751919 -0.030136852 0.018578889
0.030555349 0.042976048 0.046826415 0.048861157 0.01721875 -0.014991366 -0.14307214 -0.025535408
0.014415097 0.00510207 -0.03446577 0.006791068 -0.0381607 -0.014825622 -0.041141458 0.026775373
-0.06971473 -0.11109396 -0.045022823 0.035895575 0.021021225 0.01655595 0.033019505 -0.0014126103
-0.021215243 -0.05463423 -0.05158649 0.03554072 0.0175082 -0.007744755 -0.03506746 0.023095833
-0.0550606 -0.028028056 -0.035287585 0.05561815 0.005514049 -0.13449194 -0.04847476 -0.05692182
-0.040597674 0.02498426 0.041169595 0.0025446357 -0.08977371 -0.061662164 -0.046978645 -0.11327475
-0.086686924 -0.102032855 -0.1511059 -0.0075760214 0.04974427 -0.1050132 -0.07043542 0.021663683
-0.0149109205 -0.04577331 -0.037412602 -0.032297544 -0.02558081 -0.017264389 0.017137399 -0.039061822
0.009641371 -0.021163696 0.028499385 -0.01584806 -0.065946415 -0.0061421143 -0.039622154 -0.036299154
-0.020686818 0.021685362 0.013184607 0.0376883 0.02606481 -0.08607332 -0.08351564 -0.059576817
-0.11974567 -0.026695438 -0.06153001 -0.01084559 -0.05124061 0.031322062 -0.043284062 -0.038231827
-0.03391335 -0.13227999 -0.056602646 0.03562506 -0.04255355 -0.02868795 -0.0533642 0.0023978152
-0.0509447 -0.12559885 -0.033901274 -0.087892726 -0.029426835 -0.024647817 -0.031552736 -0.020935036
-0.007997704 0.014176763 -0.021174146 0.0496628 -0.075730145 -0.11235152 -0.014766966 -0.10236857
0.0043149786 0.03679439 0.012961698 -0.0006411761 -0.024120655 -0.052475136 0.012783705 0.05059703
-0.009291787 0.01657354 0.048147514 -0.07504614 0.005458002 -0.015595711 0.03387635 -0.006686356
0.031580143 -0.057736322 -0.07544923 -0.04407293 -0.024467103 -0.0064516305 -0.011172262 -0.0349986
-0.026380263 -0.032645337 0.03392011 -0.0010450783 -0.010940538 -0.1271564 -0.06631979 0.016831042
-0.049346313 -0.030952085 -0.04831349 -0.03653063 -0.040462043 -0.04694938 0.012071544 0.043277282
00000000: d69a 42bc 196e bdbd 312e 2ebc dd9c 83bc
00000010: 14ad cfbd 1286 0d3d 6a04 103c 26db 79bd
00000020: 1597 f6bc 0150 3d3c 89ab e73c 5db6 0fbe
00000030: 33e4 0bbe 9596 acbc fc6e 09bd baf6 01be
00000040: d8ca 9f3c 03de 97bd 4615 663b 6486 f8bc
00000050: 3197 02bd f0c6 b13a 66c0 61bd 96ef 4ebc
00000060: 66e7 083d b132 38bd 84a5 bcbd 26ed f8bc
00000070: 831a 79bd 8a99 213d 1e6a b13c 4225 c9bc
00000080: 9838 ffbc deed 0bbc b4fb d73c 8dc1 14bd
00000090: 8718 d0bc 271c 07bd 1cb4 aabc ce48 b33c
000000a0: 9a07 a0bd 0525 2d3c 6633 0d3d 2dff 343d
000000b0: 732a f6b8 217f 583d 4e70 a8bc a5c2 27bc
000000c0: a66c 523d a295 9cbd 1d67 d73c 85b5 85bd
000000d0: 527f 16bc b0da 023c 86b5 edbc 668b c1bd
000000e0: fc28 1dbd 809e 4e3d 1221 99bd 321f 17bd
000000f0: de4b 17bd c511 87bd 59a8 2a3e 9872 0c3b
00000100: 4624 cbbc 0dd1 183d 3ddc 063d dada ecbc
00000110: 557d e6bc a8c7 b3bd dbb8 9cbd a130 e43c
00000120: 279e 9ebd 6b37 583c c6ca aa3c d494 75bd
00000130: 457f 00be aa28 31bd b305 d2bc 87e4 fc3c
00000140: 4e96 c1bc bd9a a53c f0da 37bd 38c4 8f3c
00000150: d59e b73c e515 acbc 3a09 38bd 68c2 81bd
00000160: 0147 c6bc db55 70bd 6bbc 02bd 25ba b1bd
00000170: 9204 58bd 976a b0bc 4287 f2bc bbcd 0ebd
00000180: a18a 1dbd d672 1fbc 6f5a 02be 31d2 f3bc
00000190: 1fcd 67bd d128 30bc 8fe1 f6bc c132 983c
000001a0: 364f fa3c a707 303d 0ecd 3f3d a322 483d
000001b0: 560e 8d3c 599e 75bc 8181 12be a22f d1bc
000001c0: 4d2d 6c3c 442f a73b fb2b 0dbd 9b87 de3b
000001d0: 654e 1cbd 2ae7 72bc f283 28bd 0758 db3c
000001e0: 99c6 8ebd 3b85 e3bd da69 38bd 3d07 133d
000001f0: b434 ac3c 58a0 873c 763f 073d 5627 b9ba
00000200: 97cb adbc 24c8 5fbd 5b4c 53bd 2593 113d
00000210: 5b6d 8f3c b7c7 fdbb e6a2 0fbd 7933 bd3c
00000220: 3987 61bd 189b e5bc b789 10bd dbcf 633d
00000230: 32af b43b 41b8 09be 788d 46bd db26 69bd
00000240: bf49 26bd caab cc3c 73a1 283d e7c3 263b
00000250: 47db b7bd 7791 7cbd ae6c 40bd 98fc e7bd
00000260: ea88 b1bd 9af6 d0bd 81bb 1abe 4640 f8bb
00000270: a6c0 4b3d 2911 d7bd 7240 90bd 0978 b13c
00000280: ef4c 74bc cb7c 3bbd f53d 19bd 6e4a 04bd
00000290: d98e d1bc 0c6e 8dbc bb63 8c3c 4aff 1fbd
000002a0: d7f6 1d3c 7d5f adbc 8b77 e93c cad3 81bc
000002b0: ea0e 87bd ca43 c9bb d74a 22bd 6cae 14bd
000002c0: 6777 a9bc 80a5 b13c 4004 583c 0c5f 1a3d
000002d0: de85 d53c 3547 b0bd 3f0a abbd d206 74bd
000002e0: 383d f5bd 64b0 dabc e406 7cbd b4b1 31bc
000002f0: ade1 51bd 904b 003d a14a 31bd fa98 1cbd
00000300: bae8 0abd 6874 07be 2dd8 67bd 95eb 113d
00000310: a24c 2ebd fe02 ebbc 6b94 5abd aa24 1d3b
00000320: 64ab 50bd fc9c 00be 10dc 0abd 1a01 b4bd
00000330: 8c10 f1bc 38ea c9bc 713d 01bd f47f abbc
00000340: cd08 03bc a745 683c 6775 adbc 386b 4b3d
00000350: 6818 9bbd 8e18 e6bd 25f1 71bc 9da6 d1bd
00000360: aa64 8d3b b7b5 163d 4d5d 543c 9a14 28ba
00000370: ae98 c5bc 2bf0 56bd bf72 513c d53e 4f3d
00000380: 943c 18bc 3cc5 873c 5436 453d cab1 99bd
00000390: 0ad9 b23b 2785 7fbc edc1 0a3d 3819 dbbb
000003a0: 2e5a 013d ec7c 6cbd 2085 9abd d185 34bd
000003b0: 3c6f c8bc 3368 d3bb dd0b 37bc b15a 0fbd
000003c0: 6c1b d8bc 1eb7 05bd d0ef 0a3d 02fb 88ba
000003d0: f13f 33bc 4a35 02be acd2 87bd 41e1 893c
000003e0: 5c1f 4abd 3a8f fdbc 5ee4 45bd 24a1 15bd
000003f0: 87bb 25bd fe4d 40bd bac7 453c 8543 313d

critic.4.weight f4 [1, 256]
0.04161457 0.028917687 -0.02008716 -0.043992374 0.05221945 -0.0064618434 -0.027716111 -0.07191098
-0.03348436 -0.022759762 0.0010500312 -0.017288856 0.022916382 0.03854927 0.019208761 0.042611107
0.0037202516 0.05057605 0.033322 0.04522708 0.035925653 0.028991254 -0.06476976 -0.03180826
0.010302648 -0.049866837 -0.00022003254 0.002958238 0.009671815 -0.00083840714 -0.0038264417 0.029476661
-0.053747065 -0.0033240342 -0.0018391779 0.014445714 -0.0007061078 -0.015126749 7.7298566e-05 -0.012018983
0.0037675167 -0.015906015 0.029953597 0.00064722623 -0.025924165 -0.0003713575 -0.04980818 0.019863881
-0.002908292 0.032676555 0.009161012 -0.0043236306 -0.00606385 0.015048139 0.00044178413 0.030571869
0.008247614 -0.0025660398 0.029838292 -0.0094902655 0.02643691 -0.014420857 -0.08702487 4.5574903e-05
0.0054708053 -0.0065540206 -0.012558031 -0.001846911 0.05116435 0.021228205 -0.0027220275 -0.0004413826
-0.017020412 0.0002784936 0.015003351 0.048750438 -0.014500073 0.024753414 0.042407475 0.0037465498
0.026277442 0.008422406 -0.012975899 0.0069046016 -0.03582202 -0.019305598 -0.0061282967 0.0031755425
0.017647756 -0.021121053 -0.065269426 0.011289995 -0.035650708 0.011509502 -0.015159695 -0.037762754
0.013421757 0.0004626487 -0.027854498 -0.00042220444 -0.03084635 0.0025011254 0.009394664 0.033431206
-0.004403555 0.0014121062 0.015139349 0.009919412 0.035620704 -0.009598997 0.06535606 -0.0037625968
0.039546143 0.023460114 0.009629725 -0.031619564 0.014670134 -0.008172139 -0.011096784 -0.008158269
0.027749823 0.0427644 -0.009211532 0.001774411 -0.026659895 -0.0016767437 0.05525758 -0.07880183
0.030732285 0.0602983 -0.015625844 -0.027686726 0.029005015 -0.044600688 0.047429234 -0.004988913
-0.0049116667 0.008310907 0.025931492 -0.0021697935 0.0025393139 0.044761587 0.06997649 -0.0021298476
0.020676354 0.026889995 0.009552635 -0.041429967 -0.021927133 0.00703704 0.03303912 -0.05751496
-0.01667134 -0.0357113 0.031931374 0.00085436885 0.05320663 0.021761142 -0.0029419481 -0.011476221
0.027393727 0.00013675235 0.0061292923 -0.022479847 -0.07471717 0.007641107 0.00067829515 -0.030027036
-0.00087608845 -0.025930334 0.0015214663 -0.015477879 0.016905176 0.0012344014 0.00018218756 -0.010708941
-0.022515327 0.004643677 -0.0049369223 -0.010784205 0.010163093 0.055769973 0.031708237 -0.0570471
0.06937481 -0.057770953 0.008016153 0.0045574447 -0.030340757 -0.018684221 -0.022169081 0.025046984
0.0032950304 -0.034063913 0.06212247 0.004958427 0.07782778 -0.0046843705 0.0066112215 0.05675005
-0.033357378 0.056472693 0.0006656284 0.04971081 -0.04473814 0.0021938933 -0.009363701 -0.018576225
-0.0040645828 -0.0038381969 -0.016878229 0.0022811145 0.018517558 0.052845977 0.0068442905 0.031860236
-0.041943826 0.038417682 0.033847123 0.0032798315 -0.029283514 -0.0408518 -0.03864946 -0.009277311
0.031807814 -0.04941652 -0.009374577 -0.06064955 0.009582653 -0.056491207 -0.045068443 -0.0006918623
-0.0049471594 -0.019208202 0.022800505 -0.02994995 0.020855863 -0.00019533424 -0.008078923 0.03587406
-0.018462818 0.0050361943 -0.023345195 -0.039791737 0.004410724 0.06330876 0.02216615 -0.0069845775
0.021507403 -0.05189132 -0.051553484 -0.07695735 0.022766354 -0.030774243 0.030408809 -0.0054351543
00000000: 0a74 2a3d c9e4 ec3c d48d a4bc 5931 34bd
00000010: 10e4 553d dfbd d3bb e60c e3bc 1046 93bd
00000020: e526 09bd ae72 babc 33a1 893a 5ca1 8dbc
00000030: 23bb bb3c d7e5 1d3d b15b 9d3c fc88 2e3d
00000040: 77cf 733b d528 4f3d a67c 083d 0840 393d
00000050: c726 133d 117f ed3c 02a6 84bd 6149 02bd
00000060: 70cc 283c 2b41 4cbd 89b8 66b9 ffde 413b
00000070: 8876 1e3c 8dc8 5bba 0ac5 7abb 0a79 f13c
00000080: e225 5cbd 0ad8 59bb 9210 f1ba b7ad 6c3c
00000090: 181a 39ba 2fd6 77bc 5a1b a238 45eb 44bc
000000a0: 71e8 763b 554d 82bc 3f61 f53c 9eaa 293a
000000b0: ea5e d4bc c3b2 c2b9 aa03 4cbd 94b9 a23c
000000c0: 0b99 3ebb dad7 053d 1218 163c 3ead 8dbb
000000d0: 43b3 c6bb 788c 763c 439f e739 db71 fa3c
000000e0: 0021 073c 012b 28bb 6f6f f43c 0f7d 1bbc
000000f0: 3892 d83c 7545 6cbc 183a b2bd ae27 3f38
00000100: 7144 b33b 1cc3 d6bb 33c0 4dbc 0d14 f2ba
00000110: b691 513d c6e6 ad3c 0b64 32bb 5f69 e7b9
00000120: 646e 8bbc c702 9239 9dd0 753c 8aae 473d
00000130: b791 6dbc acc7 ca3c 76b3 2d3d ad88 753b
00000140: ca43 d73c 22fe 093c dd98 54bc ff3f e23b
00000150: 1cba 12bd c626 9ebc e1cf c8bb c31c 503b
00000160: 0792 903c 0f06 adbc faab 85bd acf9 383c
00000170: 7a06 12bd 5a92 3c3c 5f60 78bc 1ead 1abd
00000180: eee6 5b3c a88f f239 1e2f e4bc 525b ddb9
00000190: 7cb1 fcbc ece9 233b 14ec 193c 29ef 083d
000001a0: b24b 90bb 6c16 b93a 080b 783c 0885 223c
000001b0: 04e7 113d 1d45 1dbc 66d9 853d e695 76bb
000001c0: 23fb 213d 6d2f c03c fec5 1d3c 8483 01bd
000001d0: 005b 703c 6fe4 05bc 49cf 35bc 43aa 05bc
000001e0: 9953 e33c b929 2f3d f7eb 16bc 5a93 e83a
000001f0: da65 dabc 2fc6 dbba c655 623d db62 a1bd
00000200: 46c2 fb3c 5afb 763d c501 80bc 46cf e2bc
00000210: ed9b ed3c 36af 36bd 2845 423d 097a a3bb
00000220: 0cf2 a0bb 782a 083c 486e d43c 1833 0ebb
00000230: 9e6a 263b ed57 373d d64f 8f3d ea94 0bbb
00000240: 7561 a93c 6848 dc3c a882 1c3c 78b2 29bd
00000250: 88a0 b3bc f896 e63b 0754 073d cf94 6bbd
00000260: 5692 88bc 0346 12bd 79ca 023d b9f7 5f3a
00000270: 32ef 593d 6c44 b23c b3cd 40bb c206 3cbc
00000280: cf68 e03c 2e65 0f39 3bd8 c83b a827 b8bc
00000290: 5105 99bd 4062 fa3b 9ecf 313a 42fb f5bc
000002a0: 4da9 65ba da6b d4bc f06b c73a ee96 7dbc
000002b0: b97c 8a3c a3cb a13a 9a09 3f39 8e74 2fbc
000002c0: 1072 b8bc fc29 983b e8c5 a1bb 3cb0 30bc
000002d0: 1a83 263c 0e6f 643d 7fe0 013d 38aa 69bd
000002e0: 6114 8e3d 3ca1 6cbd 2f56 033c 9e56 953b
000002f0: 2e8d f8bc a70f 99bc ef9b b5bc 552f cd3c
00000300: 70f1 573b 9a86 0bbd 2274 7e3d 4d7a a23b
00000310: 2c64 9f3d 597f 99bb f2a2 d83b be72 683d
00000320: bfa1 08bd e94f 673d 917d 2e3a 909d 4b3d
00000330: 573f 37bd 6cc7 0f3b 356a 19bc 2b2d 98bc
00000340: 3130 85bb 428a 7bbb 3644 8abc c07e 153b
00000350: 22b2 973c 0675 583d 1246 e03b e17f 023d
00000360: 4acd 2bbd dc5b 1d3d 48a3 0a3d 71f2 563b
00000370: fbe3 efbc 3854 27bd e54e 1ebd ddff 17bc
00000380: e948 023d fa68 4abd d397 19bc aa6b 78bd
00000390: 8f00 1d3c 5363 67bd b099 38bd 185e 35ba
000003a0: c81b a2bb 855a 9dbc 20c8 ba3c 9959 f5bc
000003b0: ead9 aa3c a3d2 4cb9 765d 04bc aef0 123d
000003c0: 563f 97bc a906 a53b 6c3e bfbc a9fc 22bd
000003d0: d687 903b 06a8 813d c995 b53c e2de e4bb
000003e0: 4b30 b03c fe8b 54bd bf29 53bd d19b 9dbd
000003f0: 8180 ba3c 441a fcbc e51b f93c 6119 b2bb
